brain_region_division/Automatically-learned-division/RGNN_Leiden/emotion_model - 副本/RGNN_14.pt (torch, 10267 bytes, 5 tensors)

edge_weight f4 [1953]
1.2321768 0.0052664853 0.4732162 -0.022281406 0.009972621 -0.04642009 -0.05139964 -0.04031221
-0.28714988 -0.0126262475 -0.031652458 0.0022341872 -0.33019337 -0.19989629 0.120275736 0.020956786
0.07581014 0.046039417 0.0150649715 0.029391948 1.7827452 -0.20574173 -0.51364446 -0.8295591
-0.58055305 -0.2834637 -0.14768508 0.2509016 -0.12869033 -0.43090177 -0.43668723 -0.30093282
-0.22728029 -0.03697807 0.031033479 1.4083636 -0.08509452 -0.43960944 -0.2860611 -0.13431941
-0.16351905 -0.3374971 0.006009516 0.46209186 1.6276885 -0.12836818 -0.31703967 -0.25893444
-0.13905741 -0.1287747 -0.32115138 0.014944794 0.26265326 0.529513 0.9323277 -0.101953626
-0.56444794 -0.28389707 -0.36746186 -0.46609986 -0.027300853 -0.0067021144 0.020713637 0.033602096
0.022728186 0.27166054 -0.06560577 -0.01498398 0.01263552 0.010599482 0.12704843 0.01629305
-0.011495316 -0.018607497 0.04216804 0.033680942 -0.030937793 1.8117123 -0.13117303 0.0005821496
0.006655841 0.010281754 0.08509277 0.00719331 -0.020583225 0.013811702 0.033712853 0.010732714
-0.036889013 0.7818531 1.6965072 -1.9507987e-05 0.00084288046 0.022617325 0.018023841 0.084424816
0.019411057 -0.00065544277 0.032870777 0.0013849215 -0.035216965 0.008250182 0.627991 0.66605103
1.2910489 0.014401484 0.10795567 0.0064958306 0.00445888 0.122833006 0.6825875 -0.0396914
0.002799238 -0.28217295 -0.2568999 -0.019696528 0.40506667 0.34649733 0.8067091 2.706604
0.004267657 0.028902497 0.013221522 0.014766181 0.21393555 0.43785682 -0.017030507 0.014256025
-0.0057915566 -0.020566404 -0.022913547 0.8629447 0.69781315 0.53387505 1.4863212 2.3874996
0.011768053 0.12712532 0.008493453 -0.0153785385 0.0026864256 0.27630892 -0.17010583 -0.1315977
-0.10401399 -0.10497207 -0.04260479 -0.0316102 -0.03617458 -0.12497554 0.016073652 -0.04700211
0.78605133 -0.0065374146 -0.72375524 -0.2550788 -0.0075769946 -0.32257846 -0.16450101 0.018711554
0.29951903 1.1492122 0.23125371 0.10519091 -0.0033383525 -0.0034650657 -0.0140388645 -0.40220103
-0.008588856 -0.11821351 1.8711619 0.24240321 -0.10322228 -0.03543239 -0.042548634 -0.017705776
-0.48890993 0.036691356 0.010147852 0.0057336004 -0.009224372 -0.015298702 -0.025571521 0.013280276
-0.035402182 -0.019557986 -0.018546185 -0.4973711 0.006385369 1.3059624 0.013069724 -0.55240047
-0.1196796 -0.0713577 -0.087035 -0.5587817 0.0015207961 0.010372984 0.53860205 0.39421836
0.07552653 0.0021235798 -0.009096646 -0.015199941 -0.28415543 -0.0056286585 -0.4663114 0.5322876
0.037816856 1.5971164 -0.029835649 -0.015291696 -0.010931104 -0.012991216 0.014820671 0.016540863
-0.0024463914 0.029576156 0.012313056 0.028283838 -0.26769397 0.48064443 0.41134554 0.16312486
0.14208655 0.18541369 -0.077728674 -0.02005259 -0.6350577 -0.025153931 0.77860296 -0.09693686
-0.037583236 0.009986903 -0.018082075 0.055064496 -0.044219777 -0.017813396 0.020317784 0.03365904
0.049967732 -0.020399297 0.85742867 0.87738883 0.4239047 0.6467637 0.6637398 -0.13309549
0.029556941 0.011132137 0.06314492 0.08217808 1.7757809 0.0029140436 0.010947655 0.006747654
00000000: f8b7 9d3f 7b92 ac3b 6549 f23e 7f87 b6bc
00000010: 3464 233c fe22 3ebd 6e88 52bd 6a1e 25bd
00000020: 4f05 93be 52de 4ebc 02a6 01bd 716b 123b
00000030: 1b0f a9be 9db1 4cbe 2053 f63d 91ad ab3c
00000040: 5942 9b3d d493 3c3d 12d3 763c 62c7 f03c
00000050: ff30 e43f f6ad 52be 347e 03bf fc5d 54bf
00000060: 209f 14bf 2722 91be c23a 17be 2d76 803e
00000070: 66c7 03be 289f dcbe 7895 dfbe de13 9abe
00000080: 2abc 68be 5176 17bd ec39 fe3c 4245 b43f
00000090: 0946 aebd 7d14 e1be 9a76 92be 078b 09be
000000a0: 8a71 27be 6bcc acbe 79eb c43b 4e97 ec3e
000000b0: 1958 d03f f372 03be 0653 a2be 0e93 84be
000000c0: 1165 0ebe 84dd 03be f46d a4be 02db 743c
000000d0: 7d7a 863e 2a8e 073f 07ad 6e3f 10cd d0bd
000000e0: a97f 10bf f55a 91be f623 bcbe a4a4 eebe
000000f0: 0aa6 dfbc 699d dbbb a5af a93c 5aa2 093d
00000100: 7630 ba3c 1717 8b3e 515c 86bd 5e7f 75bc
00000110: 3605 4f3c 73a9 2d3c fc18 023e 0179 853c
00000120: da56 3cbc c06e 98bc 65b8 2c3d 07f5 093d
00000130: 4171 fdbc 30e6 e73f 3952 06be 669b 183a
00000140: 3e19 da3b cd74 283c 1e45 ae3d dcb5 eb3b
00000150: 279e a8bc 7a4a 623c 7d16 0a3d 44d8 2f3c
00000160: ef18 17bd 8627 483f 2627 d93f 15a5 a3b7
00000170: c0f4 5c3a f847 b93c bca6 933c ebe6 ac3d
00000180: f003 9f3c 05d2 2bba 82a3 063d 4186 b53a
00000190: aa3f 10bd c52b 073c 05c4 203f 5282 2a3f
000001a0: 1741 a53f 34f4 6b3c dd17 dd3d fada d43b
000001b0: cc1b 923b df8f fb3d 0ebe 2e3f 7393 22bd
000001c0: 6c73 373b f978 90be 6288 83be 9d5a a1bc
000001d0: e664 cf3e 1968 b13e 7d84 4e3f 0039 2d40
000001e0: b4d7 8b3b eec4 ec3c 159f 583c daed 713c
000001f0: ec11 5b3e c52e e03e 9083 8bbc 1a92 693c
00000200: 19c7 bdbb e07a a8bc 31b5 bbbc f2e9 5c3f
00000210: e2a3 323f 09ac 083f c63f be3f cbcc 1840
00000220: cbce 403c 242d 023e 2028 0b3c 44f6 7bbc
00000230: be0e 303b 5d78 8d3e 3930 2ebe 8cc1 06be
00000240: 4905 d5bd 99fb d6bd 5c82 2ebd b279 01bd
00000250: cc2b 14bd 2df3 ffbd e4ac 833c 4985 40bd
00000260: a93a 493f cf37 d6bb 0648 39bf b099 82be
00000270: 7048 f8bb 0129 a5be f472 28be f948 993c
00000280: 8f5a 993e 6319 933f c6cd 6c3e 556e d73d
00000290: 43c8 5abb 2816 63bb 4403 66bc 4bed cdbe
000002a0: 46b8 0cbc ed19 f2bd 3c82 ef3f 8c38 783e
000002b0: 3466 d3bd 8e21 11bd 7a47 2ebd b40b 91bc
000002c0: 6752 fabe ad49 163d 2d43 263c ede0 bb3b
000002d0: d221 17bc 68a7 7abc 5e7b d1bc 8495 593c
000002e0: e101 11bd 1238 a0bc 2bee 97bc 6da7 febe
000002f0: 5c3c d13b c729 a73f 6522 563c 1e6a 0dbf
00000300: 941a f5bd fc23 92bd 683f b2bd 510c 0fbf
00000310: 7355 c73a 73f3 293c d3e1 093f fdd6 c93e
00000320: a7ad 9a3d c22b 0b3b 190a 15bc 2c09 79bc
00000330: d27c 91be 9c70 b8bb 5ec0 eebe 0044 083f
00000340: d9e5 1a3d 4f6e cc3f e469 f4bc 068a 7abc
00000350: 6018 33bc 1cd9 54bc 66d2 723c b480 873c
00000360: a353 20bb b249 f23c b3bc 493c 82b3 e73c
00000370: 2f0f 89be 0717 f63e e29b d23e 340a 273e
00000380: 237f 113e 16dd 3d3e 3630 9fbd 5445 a4bc
00000390: 2493 22bf 9e0f cebc 8652 473f d586 c6bd
000003a0: e1f0 19bd 1ba0 233c dc20 94bc 4f8b 613d
000003b0: cc1f 35bd 66ed 91bc 7b71 a63c 10de 093d
000003c0: f7aa 4c3d 6d1c a7bc 7280 5b3f 8e9c 603f
000003d0: 090a d93e 4e92 253f daea 293f 2f4a 08be
000003e0: 6621 f23c 9163 363c 2052 813d fb4c a83d
000003f0: ca4c e33f 8af9 3e3b cb5d 333c 6d1b dd3b

conv1.lin.weight f4 [16, 5]
-0.09475529 1.1471508 0.6191178 -0.26518428 0.16533382 0.1373701 0.033911817 -0.19049641
-0.12473829 0.19254214 -0.047224462 -0.051915765 0.2569881 -0.10894337 0.14710784 0.27106807
-2.2842298 -2.4061775 -1.3816144 0.92138964 0.25178984 -0.6044669 -0.52523834 1.0688199
-0.5135081 0.18501148 1.5972167 -1.2450298 4.953422 0.77815574 -0.16979574 0.14646211
0.5852581 -0.41472372 -0.30770037 0.15148279 -0.30042168 0.3503086 -0.17416713 0.0041822228
-0.38658023 0.33985138 0.20589724 0.068116724 -0.07002959 0.3289924 -1.0133885 -0.7272363
0.2530217 -0.39640722 0.41707486 -0.07456281 -0.23963895 0.24862477 -0.1328014 -1.7829219
1.0050985 1.332983 -1.6843559 -0.5083162 0.089440115 -0.57438385 1.1271855 0.71926093
-0.06722551 -0.004203039 -0.4668995 0.78053504 -0.093301654 -0.6993379 0.5155774 -0.21370913
-1.416001 0.3403175 0.03948686 0.8475478 -1.3974024 -0.617632 0.6846134 2.086273
00000000: 100f c2bd d6d5 923f 817e 1e3f 3cc6 87be
00000010: 454d 293e bfaa 0c3e 1ee7 0a3d 7e11 43be
00000020: ca76 ffbd c429 453e 706e 41bd a0a5 54bd
00000030: f293 833e b41d dfbd 70a3 163e 6fc9 8a3e
00000040: d230 12c0 d0fe 19c0 bed8 b0bf 31e0 6b3f
00000050: 99ea 803e 58be 1abf 0576 06bf 17cf 883f
00000060: 4475 03bf a673 3d3e 9971 cc3f 235d 9fbf
00000070: 6f82 9e40 3735 473f efde 2dbe 2afa 153e
00000080: 7ad3 153f ab56 d4be e78a 9dbe 4e1e 1b3e
00000090: dfd0 99be a65b b33e de58 32be 070b 893b
000000a0: d8ed c5be 0001 ae3e bad6 523e c880 8b3d
000000b0: ac6b 8fbd b171 a83e b7b6 81bf 282c 3abf
000000c0: 0f8c 813e e3f5 cabe d68a d53e 63b4 98bd
000000d0: ea63 75be 7e97 7e3e 17fd 07be c936 e4bf
000000e0: 11a7 803f 309f aa3f f998 d7bf 0321 02bf
000000f0: 612c b73d d20a 13bf 9d47 903f 7c21 383f
00000100: 87ad 89bd a6b9 89bb 740d efbe 25d1 473f
00000110: f014 bfbd cf07 33bf e1fc 033f 91d6 5abe
00000120: 853f b5bf 183e ae3e f9bc 213d e5f8 583f
00000130: 15de b2bf 211d 1ebf d342 2f3f 7f85 0540

conv1.lin.bias f4 [16]
-0.26385075 -0.34415263 -0.17176288 -0.09654942 -0.050068025 -0.12319358 -0.26970503 -0.2837064
-0.075271554 -0.07310791 -0.48296657 -0.060488824 -0.04139253 -0.47910142 -0.02833481 0.020856027
00000000: 7217 87be c634 b0be 9ce2 2fbe b4bb c5bd
00000010: 2114 4dbd ea4c fcbd c716 8abe f741 91be
00000020: f927 9abd 9ab9 95bd 6547 f7be 21c3 77bd
00000030: 378b 29bd c84c f5be 671e e8bc 42da aa3c

fc.weight f4 [4, 16]
0.40680933 -0.11683927 0.24681863 -0.7611407 -0.1995431 1.3868839 0.14524014 -0.10424615
-0.22780307 -0.24586697 -0.16169724 0.32691452 -0.045838483 0.030507544 -0.23220405 0.45252764
-0.376066 -0.03931942 -0.11771494 0.9979253 0.17997906 -1.8603289 0.19932657 -0.21440734
0.004319786 -0.020594135 -0.083821036 -2.0566142 0.27664074 0.31788525 -0.017387224 0.35983592
-0.38202336 -0.117204435 0.1911417 -0.019993095 0.22835384 0.6019307 -0.17950115 -0.010558759
0.054760884 0.74465495 0.10282849 0.18887365 -0.15005147 0.25679636 0.5948043 -0.1277736
0.42200252 0.1288505 0.07985851 -0.24608599 0.10258613 -0.33498645 -0.2084122 -0.17636833
-0.16489907 -0.33519834 0.004876889 0.9262244 -0.4755426 -0.322304 0.11837965 -0.85582894
00000000: 5049 d03e 6d49 efbd 06be 7c3e 1eda 42bf
00000010: 0755 4cbe 6985 b13f d5b9 143e 017f d5bd
00000020: 3545 69be 8dc4 7bbe f693 25be 5761 a73e
00000030: 22c1 3bbd f5ea f93c e6c6 6dbe b4b1 e73e
00000040: b98b c0be 660d 21bd 8814 f1bd 0878 7f3f
00000050: 6e4c 383e 421f eebf 441c 4c3e 998d 5bbe
00000060: fe8c 8d3b 08b5 a8bc 5daa abbd 919f 03c0
00000070: dba3 8d3e dbc1 a23e a76f 8ebc 6a3c b83e
00000080: 9198 c3be e108 f0bd a6ba 433e 8fc8 a3bc
00000090: 97d5 693e 2118 1a3f 26cf 37be a5fe 2cbc
000000a0: f34c 603d b5a1 3e3f be97 d23d 1868 413e
000000b0: 18a7 19be d07a 833e 1845 183f 15d7 02be
000000c0: b710 d83e 63f1 033e dc8c a33d f7fd 7bbe
000000d0: ad18 d23d 5883 abbe 026a 55be e699 34be
000000e0: 4ddb 28be 1e9f abbe 4fce 9f3b 0b1d 6d3f
000000f0: 527a f3be 0805 a5be 0871 f23d 9b17 5bbf

fc.bias f4 [4]
-0.2201229 -0.00403271 -0.6304643 0.35340357
00000000: e667 61be d324 84bb 1c66 21bf 50f1 b43e
