brain_region_division/Automatically-learned-division/RGNN_Leiden/emotion_model - 副本/RGNN_6.pt (torch, 10267 bytes, 5 tensors)

edge_weight f4 [1953]
0	0x3f7a4c8f	0.9777307
1	0xbe16a847	-0.1471263
2	0x3f3e7b8b	0.7440726
3	0xbe1667e2	-0.14688066
4	0xb7a2e8ff	-1.9420402e-05
5	0x3f5c3316	0.8601545
6	0xbe8fe77c	-0.28106296
7	0xbd03b002	-0.032150276
8	0xb8707fdb	-5.7339534e-05
9	0x3f207b4e	0.6268815
10	0xbe132b4f	-0.1437199
11	0x3bb4da44	0.0055191834
12	0x3d477db2	0.048703857
13	0x3aad97e4	0.001324412
14	0x3f83e948	1.0305567
15	0xbe2066e8	-0.15664256
16	0x3be28b80	0.0069136024
17	0x3bdb4fd5	0.0066928663
18	0x3ccce9e1	0.025013866
19	0x3d3dbe10	0.046323836
20	0x3f6c83cc	0.92388606
21	0xbe1d1161	-0.15338661
22	0x3b6ad215	0.0035830785
23	0x3c42a9b3	0.01188128
24	0x3b4b5b91	0.003102992
25	0x3c4e36da	0.01258632
26	0x3d95ff3d	0.073240735
27	0x3f8657ee	1.0495584
28	0xbe1c61ba	-0.15271655
29	0xbc2ad679	-0.010427111
30	0x3d8d9a47	0.06914192
31	0x3bf8a908	0.0075885095
32	0x3cd36862	0.02580661
33	0x3dce93cf	0.10086786
34	0x3daaad1c	0.08333799
35	0x3f444af4	0.7667687
36	0xbde59352	-0.1120974
37	0x3bb5f1c5	0.005552503
38	0x3d9382b3	0.07202663
39	0x3c2b4781	0.01045406
40	0x3d948e89	0.07253749
41	0x3d94a5fe	0.07258223
42	0x3dc25fa1	0.09490896
43	0x3b3f5e53	0.0029200509
44	0x3f5f52a6	0.87235487
45	0xbdbeb628	-0.09312087
46	0x3b6ca747	0.0036110447
47	0x3d8f4d75	0.06997196
48	0x3c24c24c	0.01005609
49	0x3d8aca70	0.06776893
50	0x3d81d745	0.063398875
51	0x3dab3474	0.08359614
52	0x3c0ad6de	0.00847408
53	0x3bcbde1d	0.0062215463
54	0x3f625ca5	0.88422614
55	0xbc17e4ad	-0.009270829
56	0x3c70df70	0.014701709
57	0x3c09e69d	0.008416799
58	0x3bbab93d	0.0056983517
59	0x3c40de7d	0.011771795
60	0x3c55114b	0.013004611
61	0x3cb97ac5	0.022641549
62	0x3c459d3f	0.012061416
63	0x3b87f65d	0.004149242
64	0x3cb08f0f	0.02155259
65	0x3f4b53f7	0.79424995
66	0x3dba1636	0.09086268
67	0xbd50a878	-0.050941914
68	0xbd2c9d60	-0.042142272
69	0xbd4eb4dc	-0.05046545
70	0xbd9b4d66	-0.07583122
71	0xbb5a75ae	-0.0033334303
72	0xbd200651	-0.039068524
73	0xbd2cd04c	-0.042190835
74	0xbbe78057	-0.00706486
75	0xbc0590cb	-0.008152197
76	0xbe0ff4f5	-0.14058287
77	0x3f21fb75	0.6327432
78	0x3d886094	0.06659046
79	0xbda1193a	-0.0786614
80	0xbdc2cfe3	-0.095123075
81	0xbc1d44de	-0.009598939
82	0xbdbdd090	-0.09268296
83	0xbd8f5b2e	-0.06999813
84	0xbdb83697	-0.08994787
85	0xbcc8fe19	-0.024535226
86	0xbc9f2a9d	-0.0194295
87	0xbcf09c00	-0.029371262
88	0xbbb3efe7	-0.005491245
89	0xbdcac120	-0.09900117
90	0x3f5103b4	0.81646276
91	0x3c077ed2	0.008269982
92	0xbd23f818	-0.040031523
93	0xbd965e64	-0.07342222
94	0x3d6f7fb2	0.05847139
95	0xbbf4b3c8	-0.0074677207
96	0xbdb47914	-0.08812156
97	0xbc2a2d21	-0.010386736
98	0x3bc94b13	0.0061429827
99	0x3bf732c0	0.0075438917
100	0xbb862fe2	-0.0040950635
101	0xbd9f1a44	-0.07768682
102	0xbe18b486	-0.14912614
103	0xbd4b2e84	-0.049604908
104	0x3f286771	0.6578284
105	0x3dc884ca	0.097909525
106	0xbdf0c42f	-0.11756169
107	0xbe112e23	-0.14177756
108	0xbe10cd6c	-0.14140862
109	0xbe1d9790	-0.15389848
110	0xbde54c46	-0.11196189
111	0xbe517811	-0.20455958
112	0xbddce91d	-0.1078665
113	0xbdca96bf	-0.09892034
114	0xbdc81b71	-0.09770859
115	0xbd14eedd	-0.03636061
116	0x3e85445e	0.26028723
117	0x3e7782a7	0.24170934
118	0x3dc178cb	0.094468676
119	0x3fa38bf9	1.2777091
120	0x3e0164c7	0.126361
121	0xbd82b522	-0.063822046
122	0xbd6bcaed	-0.057566572
123	0xbdb1208d	-0.08648787
124	0xbdb5d5d5	-0.08878676
125	0xbddda810	-0.10823071
126	0xbdc44bad	-0.095847465
127	0xbdcb3484	-0.09922126
128	0xbe128a21	-0.14310504
129	0xbe0edeb1	-0.13952138
130	0xbdb9d613	-0.090740345
131	0x3aa40c0a	0.0012515795
132	0x3d5a41c4	0.053285375
133	0x3cfa9254	0.030587353
134	0x3eb59e4f	0.35472342
135	0x3f8f368b	1.118852
136	0x3cdcae25	0.026938507
137	0xbd2861a1	-0.04110873
138	0xbd4fc680	-0.050726414
139	0xbd63961e	-0.055563085
140	0xbd3e324c	-0.046434686
141	0xbd8e9b2d	-0.06963191
142	0xbcc543eb	-0.024080237
143	0xbc955298	-0.01822786
144	0xbdb53288	-0.08847529
145	0xbdb9ee77	-0.09078687
146	0xbe5a1257	-0.21296059
147	0x3b76f204	0.0037680874
148	0x3b83a479	0.0040174094
149	0x3b80855e	0.0039221486
150	0x3dbb8bd8	0.091575325
151	0x3e13d9b8	0.14438522
152	0x3f5c53a5	0.8606513
153	0xbd3ee20e	-0.0466023
154	0x3d8609d7	0.065448456
155	0x3dcd8b5e	0.10036348
156	0x3ca08bab	0.019597849
157	0x3db8f988	0.09031969
158	0x3da1a20f	0.07892238
159	0x3df0d8d4	0.11760107
160	0x3d29f688	0.041494876
161	0x3c0e24b1	0.00867574
162	0x3bacc1ac	0.005272111
163	0x3ced4e0a	0.028967876
164	0xbc1f4f0d	-0.009723437
165	0xbcc7d3aa	-0.024392921
166	0xbc345b45	-0.0110080885
167	0xbda7ee1d	-0.081997134
168	0xbdd6953c	-0.10477683
169	0xbd74d5a2	-0.05977405
170	0x3f6fef5b	0.937246
171	0xbd3e7258	-0.046495765
172	0x3cd43318	0.02590327
173	0x3d876a31	0.06612051
174	0x3b671e1f	0.0035265756
175	0x3d329464	0.043598548
176	0x3d651df1	0.055936757
177	0x3d8cd3a8	0.06876308
178	0x3c152784	0.00910366
179	0x3cfd338d	0.03090837
180	0x3cc7fefb	0.024413576
181	0x3d8d513b	0.06900259
182	0xbcdc05c7	-0.026858224
183	0xbca6c228	-0.020356253
184	0xbc457f8c	-0.012054335
185	0xbd807202	-0.06271745
186	0xbda7afff	-0.081878655
187	0xbc6f0f01	-0.01459098
188	0x3b8df602	0.004332305
189	0x3f6ac877	0.91712135
190	0x3c52ba86	0.012861853
191	0xbd21c313	-0.039492678
192	0xbd4862b3	-0.048922252
193	0xbc9b8b19	-0.018987225
194	0xbd4a0ba6	-0.049327515
195	0xbd17d59e	-0.037068956
196	0xbd181b98	-0.03713569
197	0xbd28278d	-0.041053344
198	0xbd8fd7cc	-0.07023582
199	0xbd918d60	-0.07107043
200	0xbe16c3d1	-0.14723136
201	0x3bde2323	0.006779091
202	0x3bfc33fe	0.0076966276
203	0x3c083cf7	0.008315316
204	0x3d75f181	0.06004477
205	0x3d8fc03e	0.07019089
206	0xbccee5b6	-0.02525602
207	0xbdbd00c9	-0.092286654
208	0xbdafb644	-0.08579686
209	0x3f85905f	1.0434684
210	0x3d856249	0.06512887
211	0xbc8eb61b	-0.017420819
212	0xbd2240df	-0.039612647
213	0xbc0f4c5e	-0.008746235
214	0xbd8fc95d	-0.07020829
215	0xbd4f012d	-0.05053823
216	0xbd60d9d3	-0.054895233
217	0xbdf30bd5	-0.11867491
218	0xbdfade95	-0.122494854
219	0xbe02897f	-0.12747763
220	0xbdda2ceb	-0.10653099
221	0x3b636cb4	0.0034702243
222	0xbc8c2d03	-0.017111307
223	0x3b39f5f4	0.002837536
224	0x3e01f1ca	0.12689891
225	0x3da0f30b	0.07858857
226	0x3c210057	0.009826741
227	0xbdf7d476	-0.121010706
228	0xbdd8a32f	-0.10578
229	0x3d13acf9	0.03605363
230	0x3f7a9b70	0.9789343
231	0x3e2b6299	0.16736831
232	0xbe055b1f	-0.13023041
233	0xbe338ca5	-0.1753412
234	0xbdc96bc0	-0.09835005
235	0xbe48c4a2	-0.1960626
236	0xbd99c4c8	-0.07508236
237	0xbe20adc0	-0.1569128
238	0xbe0fba4a	-0.14035907
239	0xbdce5789	-0.1007529
240	0xbdc48dd5	-0.09597365
241	0xbb03d97f	-0.0020118651
242	0x3d47a548	0.04874161
243	0x3c3020e2	0.010750027
244	0x3b876782	0.004132212
245	0x3eca6a82	0.39534384
246	0x3e160717	0.14651142
247	0x3d1e8dcc	0.038709447
248	0xbdc1b436	-0.09458201
249	0xbd60fad3	-0.054926705
250	0x3d1bd30b	0.038043063
251	0x3dae73dd	0.08518193
252	0x3fa3e22c	1.2803397
253	0x3e6336ed	0.22188921
254	0xbe78ccd8	-0.24296892
255	0xbe6d8b24	-0.23197609

conv1.lin.weight f4 [16, 5]
0	0xbd80dd5c	-0.06292221
1	0xbd852b91	-0.0650245
2	0xbeb1fa81	-0.34761432
3	0xbed20e23	-0.4102641
4	0xbeb96bc5	-0.36215034
5	0x3e534481	0.20631601
6	0xbece6e5b	-0.4031857
7	0x3ea384f2	0.31937367
8	0x3ed19ecf	0.40941474
9	0xbd83ff9b	-0.06445237
10	0x3ee1f9be	0.4413585
11	0x3f1c686d	0.6109684
12	0x3f5115bc	0.8167379
13	0x3f096d47	0.5368237
14	0x3eef4463	0.46731862
15	0x3e722cee	0.23649952
16	0xbeda03ce	-0.42581028
17	0x3e1d19a7	0.15341817
18	0xbe258dc1	-0.16167356
19	0x3e981784	0.2970544
20	0xbe811263	-0.2520934
21	0x3e5185c5	0.20461185
22	0x3e45338c	0.19257945
23	0x3e6e838f	0.23292373
24	0x3e30845c	0.17237991
25	0x3dfcc541	0.12342311
26	0xbdc095a4	-0.09403542
27	0xbe640424	-0.22267205
28	0x3e38b8a4	0.18039185
29	0xbe831b3d	-0.2560672
30	0xbdc73fe9	-0.09728987
31	0xbe2a216b	-0.1661431
32	0x3f634a88	0.887856
33	0x3f623acf	0.88370985
34	0x3f35d857	0.71033233
35	0xbec137c1	-0.3773785
36	0x3e4914ad	0.19636793
37	0xbe322443	-0.17396645
38	0xbd8491ab	-0.064730965
39	0x3e170729	0.14748825
40	0xbea2e0ed	-0.3181223
41	0x3eba82a6	0.36427802
42	0x3d401e6b	0.04690401
43	0xbe90b890	-0.2826581
44	0xbd1501dd	-0.03637873
45	0x3ee831d1	0.45350507
46	0x3d4f3b9d	0.05059396
47	0x3f3dfe57	0.74216217
48	0x3f1b5cc6	0.60688436
49	0x3eb6c491	0.35696843
50	0xbe0c077c	-0.1367473
51	0xbe8e79ce	-0.27827305
52	0x3f6bdddd	0.9213541
53	0x3fa632e5	1.2984282
54	0x3ef70a6d	0.48250142
55	0xbe09ec2a	-0.13468996
56	0xbea4ae0c	-0.32164037
57	0x3ee61f0f	0.4494557
58	0xbe8bbcfd	-0.27292624
59	0x3ec030be	0.37537187
60	0x3eb30def	0.34971568
61	0xbeba565c	-0.36394012
62	0xbe7b8048	-0.24560654
63	0x3df2ace0	0.118493795
64	0x3ecbb578	0.39786887
65	0xbef3c26d	-0.47609273
66	0xbdb95257	-0.09048908
67	0x3de3423f	0.1109662
68	0x3ea39e14	0.31956542
69	0x3e8daaaf	0.27669284
70	0x3ec047b4	0.37554705
71	0x3e156a6d	0.1459138
72	0x3f0b84f9	0.54499775
73	0xbdadd9f5	-0.08488838
74	0xbe8d3b03	-0.27584085
75	0x3ec1c33f	0.37844273
76	0xbd382a69	-0.04496232
77	0x3e5a0ac2	0.21293166
78	0x39fc0cae	0.00048074633
79	0x3ef4c05f	0.47803017

conv1.lin.bias f4 [16]
0	0xbd01bab1	-0.031672183
1	0xbe8c8d16	-0.2745139
2	0xbc82a1ab	-0.01594623
3	0xbeb904d8	-0.36136508
4	0xbc84af51	-0.016196879
5	0xbc3d1492	-0.011540549
6	0xbdb1fbec	-0.086906284
7	0xbe92c515	-0.28665987
8	0xbec1d870	-0.3786044
9	0xbccb57a2	-0.02482206
10	0xbdb6b9a1	-0.08922125
11	0xbd0f9a5b	-0.035059314
12	0xbe408bc4	-0.18803316
13	0xbec181fb	-0.3779448
14	0xbe509adc	-0.20371574
15	0xbe39c699	-0.18142165

fc.weight f4 [4, 16]
0	0xbd8485dd	-0.06470845
1	0xbe0d66a3	-0.13808684
2	0x3cb91edc	0.022597723
3	0xbdbf4b1b	-0.09340497
4	0xbdd512d9	-0.104039855
5	0x3e0ef49b	0.13960497
6	0xbec438d5	-0.3832461
7	0x3d120f68	0.035659224
8	0xbe3b24f9	-0.18275823
9	0x3e46d01a	0.19415322
10	0xbefb96f7	-0.49138615
11	0xbd351642	-0.04421068
12	0x3c91cde1	0.017798366
13	0xbe14f5d8	-0.14546907
14	0x3e85cb3e	0.26131624
15	0xbe45798d	-0.19284649
16	0x3e0f224d	0.13977928
17	0xbddf1f99	-0.10894699
18	0xbec3374d	-0.3812813
19	0x3d655556	0.055989586
20	0xbd1e678f	-0.03867298
21	0x3df10339	0.11768193
22	0x3e9ac70e	0.30229992
23	0x3de4eb84	0.111777335
24	0xbe867fe0	-0.26269436
25	0xbe17ae6d	-0.14812632
26	0x3e9a94cc	0.30191648
27	0xbdc53d45	-0.09630827
28	0xbe06d6bd	-0.13167854
29	0x3c912470	0.01771757
30	0x3e457693	0.19283514
31	0x3df7a010	0.120910764
32	0x3dbbdb0a	0.09172638
33	0xbc3ef4f4	-0.011655081
34	0xb88ff92d	-6.865184e-05
35	0x3e88b56d	0.26700917
36	0xbe0ef41d	-0.1396031
37	0x3dafd80a	0.08586128
38	0x3e48f2c6	0.1962386
39	0xbd4af82f	-0.049553093
40	0x3e5982b3	0.21241264
41	0xbd8c564c	-0.06852397
42	0x3ebd37f7	0.3695676
43	0xbd82309f	-0.0635693
44	0x3e08ea12	0.1337054
45	0xbde87b6e	-0.11351667
46	0xbd2c4677	-0.042059388
47	0xbd1adfea	-0.037811197
48	0xbd148dfa	-0.036268212
49	0x3e2868fd	0.164463
50	0x3e3cd3e3	0.18440203
51	0xbd0d79e5	-0.034540076
52	0xbe3efa0e	-0.18650076
53	0x3d99ad51	0.075037606
54	0xbf02e0c8	-0.5112424
55	0xbe1803bd	-0.14845176
56	0xbe4ed15d	-0.20197053
57	0x3ea4deb1	0.3220115
58	0xbeceebaf	-0.40414187
59	0xbe9d0e56	-0.30675
60	0x3e914fdd	0.28381243
61	0xbe3bc811	-0.18338038
62	0x3cb75cf8	0.022383198
63	0xbdd6a66b	-0.104809605

fc.bias f4 [4]
0	0x3ec0d41f	0.37661836
1	0xbdd9dd77	-0.10637944
2	0xbe6564a3	-0.22401671
3	0xbd94f558	-0.07273358
