brain_region_division/Automatically-learned-division/RGNN_Leiden/emotion_model - 副本/RGNN_4.pt (torch, 10267 bytes, 5 tensors)

edge_weight f4 [1953]
000000 91 ee 13 40 63 96 a4 3f 6c 97 2e 40 f0 48 4b bf
       2.311436 1.2858394 2.727992 -0.7940817
000010 18 cf 37 bf 1b 72 d6 3f f5 54 4a 3f 1c b8 ae 3e
       -0.71800375 1.6753572 0.79035884 0.3412484
000020 64 d0 69 bf 88 aa e7 3f 96 b0 00 c0 a9 ee df bf
       -0.91333604 1.8098917 -2.010778 -1.7494708
000030 e8 82 f0 3e ac 41 98 bf 71 71 0a 40 3e 8b 18 3e
       0.46974874 -1.1895041 2.163174 0.14896867
000040 63 45 3e 3f e6 7c 03 bf 13 8a d2 be fd e2 13 bf
       0.74324626 -0.51362455 -0.41120967 -0.5776823
000050 91 f5 4a 40 5c a5 13 bd 04 e6 97 3c 51 13 33 3f
       3.1712382 -0.03604637 0.018542297 0.6995135
000060 1d 76 69 3c 19 0b e6 3e ea cd 7d bf 9a ee 68 40
       0.014249352 0.44930342 -0.99142325 3.639563
000070 2c 53 32 be 9f e9 4c be 61 f6 b3 3e 45 75 7d be
       -0.1741454 -0.20010994 0.3514891 -0.24751766
000080 c1 e0 7d 3f a8 0f 6d bf 94 82 0c 40 c2 7e 25 40
       0.9917107 -0.92602015 2.1954699 2.5858617
000090 32 1f c2 bc 6c d3 15 bd df b7 84 bf 73 c6 01 bd
       -0.023696516 -0.03657858 -1.0368613 -0.031683397
0000a0 be 9a 91 3d d7 44 c9 be 46 ae 57 3c be cb 9f 3c
       0.07109593 -0.39310333 0.013164109 0.019506332
0000b0 6c a6 ed 3f dd a6 e1 3f 26 06 b6 3f 08 6e 6b bf
       1.8566413 1.7629048 1.4220626 -0.9196477
0000c0 eb a8 59 3f e8 05 17 c0 e4 9e 93 3c 1b 50 ec bc
       0.85023373 -2.3597355 0.0180201 -0.028846791
0000d0 94 5c 83 bd c1 12 95 3c 4a 4c 7f 40 e8 77 82 3e
       -0.06414142 0.01819742 3.9890313 0.25482106
0000e0 12 de 6d 3f f5 0b 1e 3f b3 7d cb bd bd a8 26 be
       0.9291698 0.61736995 -0.099360846 -0.16275306
0000f0 e4 cc 01 3e cc fb a8 3c 5d e3 29 3d fc 9c d8 be
       0.12675816 0.020627879 0.041476596 -0.4230727
000100 6e 34 64 be 2d a0 b3 40 0a 66 eb bf 9f 4f 5f bf
       -0.22285625 5.6133027 -1.8390515 -0.8723087
000110 75 50 e7 3e be ff 8d bf 48 de a8 3f 07 b0 ad be
       0.4517857 -1.1093671 1.3192835 -0.3392336
000120 f0 e2 f4 3b c3 5c f7 3d 6a c6 12 3c 5d cd 3e c0
       0.007473342 0.1207824 0.008958438 -2.9812844
000130 74 8c b2 3c e8 e7 87 40 ae ea 3e bf e7 be fd bc
       0.021795489 4.247059 -0.7457684 -0.030974818
000140 8f a5 f2 3d b1 0e 1a bf d6 92 ed 3e 37 39 01 3c
       0.11847984 -0.6017867 0.4640109 0.007887176
000150 1e 9b 73 3c 8f 2b d6 3e 57 b6 00 3e 87 09 92 bf
       0.014868526 0.41830108 0.12569557 -1.1409158
000160 29 fe dd 3e d7 3a 01 40 3c cf 27 40 a2 3c 2f 3d
       0.4335797 2.0192163 2.6220236 0.042782433
000170 75 2d 27 3c a5 4a a9 3e 71 63 4e bf cb c9 ef 3e
       0.010203709 0.33064762 -0.80620486 0.46833643
000180 67 6d c4 bb 90 44 ed bc c6 ac 71 bd 5d 82 0e bd
       -0.005994487 -0.028963357 -0.05900266 -0.034792293
000190 c8 dc 97 bf cc 65 95 3e 2e 01 c4 3e 8b c5 ec 3d
       -1.1864252 0.29179227 0.3828215 0.11561116
0001a0 b8 62 12 40 5c 0d 86 3d 0a a8 19 bd a4 fb eb 3e
       2.2872753 0.06545517 -0.03751377 0.46090424
0001b0 89 7c 0e be 66 58 85 3b da 17 0c 3f 44 40 fc bd
       -0.13914694 0.004069376 0.54723895 -0.12316945
0001c0 ff 2a c0 be 6c a2 49 bf 69 e6 7a be d1 64 31 be
       -0.37532803 -0.7876346 -0.24501957 -0.17323615
0001d0 2a 76 2a 3b 92 a3 28 bf 1f 42 61 3f 94 de 55 40
       0.0026010373 -0.6587459 0.8799152 3.34171
0001e0 98 ac c6 3d f3 5b 56 3d 26 08 81 be 6f 29 57 be
       0.097008884 0.052333783 -0.2520153 -0.210119
0001f0 6f d0 ca 3c 5b a9 54 3e f5 83 27 bf 8e 55 ee be
       0.024757592 0.20767729 -0.65435725 -0.46549648
000200 f9 48 a0 3f 69 3e cb 3e 5a a6 b0 be 6b ef b3 3c
       1.252227 0.39696053 -0.34501916 0.02196475
000210 1d c2 93 3e 68 3f 92 bc 2b 65 37 3e a8 31 20 40
       0.28859034 -0.0178525 0.17909686 2.5030308
000220 7b 6f da 3e e9 b4 a1 bb a5 f2 85 be 74 e0 d7 3e
       0.42663178 -0.0049348962 -0.26161686 0.42163432
000230 ab c6 45 be b6 b3 17 bd fe 4f a4 3e b0 07 e1 3b
       -0.19314067 -0.03703662 0.3209228 0.0068673715
000240 a0 87 02 3f 50 50 2e 3e 9c ee cc be bc 74 31 3b
       0.509882 0.17022824 -0.40025795 0.0027077636
000250 26 38 71 be 82 e7 d2 be 47 05 a2 3e 24 41 4f 3e
       -0.23556575 -0.4119225 0.3164465 0.20239693
000260 b0 fa 1c 40 78 5d 34 3e 4a b4 1e bd c5 35 0b bf
       2.4528008 0.1761378 -0.038746156 -0.5437892
000270 f4 25 b5 3e 63 9d 26 be 71 70 b1 bd 23 45 26 3e
       0.35380518 -0.16270976 -0.086640246 0.16237311
000280 ff 31 6b 3c 21 e6 2f 3f 67 36 2f 3d f6 73 d8 be
       0.014355182 0.68710524 0.04277649 -0.4227597
000290 a1 c2 9f bc c1 28 1d be 88 8c ff be 08 ef 0e 3f
       -0.019501986 -0.15347578 -0.49911904 0.5583348
0002a0 11 1f 4d 3f 2c 17 b3 3f dd eb f9 3f 4a 12 de 3e
       0.8012553 1.3991446 1.9525105 0.43373328
0002b0 61 b9 f7 3f 68 1a 5d bf 1f 44 b4 3d bf 0c 88 bf
       1.9353448 -0.8636842 0.088020556 -1.062889
0002c0 50 58 3d 3f a5 d3 ca be 22 b6 28 bf 29 1b 88 be
       0.7396288 -0.39614597 -0.6590291 -0.26583222
0002d0 23 2e e7 3e 07 b9 9f bc 02 f9 f6 be 11 25 df bc
       0.45152387 -0.019497408 -0.48236853 -0.027239354
0002e0 22 11 a5 be d6 80 22 bc 7d d7 07 bc 9c 87 07 3d
       -0.32239634 -0.009918412 -0.0082911225 0.03308831
0002f0 07 ff 38 3d 18 4d 2b 40 93 f9 4a bd 6f 46 09 3d
       0.045165088 2.6765804 -0.04955442 0.033514436
000300 a0 81 97 bd e8 a0 01 bf a9 c7 6c bd ad cc b0 3f
       -0.07397771 -0.5063615 -0.0578076 1.3812462
000310 5f ee ef be a1 3b b6 be 53 15 7e be 1f 2b b8 be
       -0.4686155 -0.35592368 -0.24812822 -0.359704
000320 87 28 64 bd 14 2e 5b 3e c0 5f 60 3f 14 71 91 3e
       -0.055702712 0.21404296 0.876461 0.28406584
000330 5f 87 a4 3f 67 4e cb 3e 57 21 40 3f f5 2d 05 3f
       1.2853812 0.39708254 0.7505087 0.5202325
000340 22 a3 90 3e 6c 7a a6 3f cd fa 8f bd eb ca 14 be
       0.2824946 1.300611 -0.07030258 -0.14530532
000350 d8 28 b4 bc b9 c3 f3 bd 07 c1 3b 3e 8b 26 31 bf
       -0.021992132 -0.119025655 0.18335353 -0.69199437
000360 5e 5a 8d 3f 95 80 e4 3e ea c7 4e 3f 46 51 2c bd
       1.1043203 0.4462935 0.80773795 -0.042069696
000370 2a 3a 82 bf 1d 27 3b 3f 87 3e 9a bc 6f 0c 10 bf
       -1.0174 0.7310656 -0.018828643 -0.5626897
000380 ab f0 2a bf 81 7b 8d 3e 07 32 78 3f 78 7a 45 3f
       -0.6677348 0.27633289 0.96951336 0.7714
000390 a4 37 11 bf 92 9e 5b 3e e3 37 4b 40 0b 96 0e 3d
       -0.56725526 0.21447209 3.175286 0.03481106
0003a0 8e 3d 98 3d cb fc b6 bd c8 e8 8d be 3c 45 bb 3c
       0.074336156 -0.08934935 -0.2771666 0.022860162
0003b0 7b ff d1 3e e5 4b be 3e 27 d6 2d 3f bf 38 97 be
       0.4101523 0.37167278 0.67904896 -0.2953548
0003c0 d0 cc 31 be 11 16 a6 3e 30 ef 88 3d 64 f7 02 3d
       -0.17363286 0.3243871 0.066862464 0.03197421
0003d0 96 71 62 bf 9e e3 0d bf 5a d1 47 bf 9c d7 4a 3f
       -0.8845457 -0.5542544 -0.7805382 0.79235244
0003e0 39 0b c8 3e f3 69 4f be dd 85 be be cc e9 cc 3c
       0.39071062 -0.2025526 -0.37211505 0.025013827
0003f0 42 46 02 40 9a c4 28 3e fa e0 c8 bd b5 ec 5f 3f
       2.0355382 0.16481248 -0.09808536 0.8747056

conv1.lin.weight f4 [16, 5]
000000 2d 69 b6 be 6c 90 f1 3e 9b f7 16 bd f2 38 c6 3d
       -0.35627118 0.47180498 -0.03685723 0.0967883
000010 61 64 aa be 48 f6 c8 3d 87 6f e4 3e fa c0 11 3d
       -0.33279708 0.098125994 0.4461634 0.035584427
000020 e3 76 11 be aa 98 27 be 19 93 68 be f8 f8 5e 3e
       -0.14205508 -0.1636683 -0.22712363 0.21774662
000030 32 e1 88 3e 34 bf 2a be a0 31 ad bc 1d f4 14 3f
       0.2673431 -0.166745 -0.021141827 0.5818499
000040 72 64 0f 40 79 65 b9 be 5c 87 3a 40 02 6a 83 3f
       2.2405057 -0.3621023 2.9145117 1.0266726
000050 d8 83 84 3e bd 7c 9d be be dc 5d be a5 f6 c8 3e
       0.2588184 -0.3075923 -0.21666238 0.39250675
000060 aa 96 12 3e 30 f0 c4 bc 5f 7e 61 be 00 10 d3 38
       0.14315286 -0.024040312 -0.22020863 0.00010064244
000070 a0 49 b7 3d 28 68 0d 3d 05 8b 61 3f ac d7 0a 40
       0.0894959 0.03452316 0.8810275 2.1694136
000080 50 94 b0 3e a1 df 7a 40 ff 27 99 3e 6a f7 d5 be
       0.34488153 3.9198992 0.29913327 -0.41790324
000090 a2 b9 2b 3f 79 e3 46 c0 02 50 2f bf be 3c 77 bf
       0.6708013 -3.1076338 -0.6848146 -0.9657706
0000a0 55 e9 41 3f db 69 1c 40 e4 53 8f be 18 c8 8a 40
       0.7574666 2.443961 -0.2799369 4.3369255
0000b0 03 d5 98 bc 54 2a 1b 3f bb 32 27 40 ba 17 e9 be
       -0.01865626 0.6061146 2.6124713 -0.45525914
0000c0 51 29 4a 40 51 f7 9b 3f 43 db 05 be a3 dc ac 3e
       3.1587718 1.218485 -0.13071923 0.33762082
0000d0 af 51 73 3d 38 dd 2a 3e d4 65 a7 be 15 ec 59 3e
       0.05940407 0.16685951 -0.32694876 0.21281464
0000e0 ec f3 a7 be 8b 83 8d 3e 29 07 f0 bc 7e e5 11 3e
       -0.32803285 0.27639422 -0.02930029 0.142477
0000f0 a1 86 34 3f d9 53 23 40 b4 cc 7a be 0e fc 60 40
       0.7051793 2.5519927 -0.2449215 3.5153842
000100 3c 5d a2 3f f0 e8 5b bd 78 70 12 3e 70 00 36 3d
       1.2684703 -0.053688943 0.14300716 0.04443401
000110 98 21 4e 3e 08 62 82 bd 7e dd 60 bd 5c 88 d2 3f
       0.20130002 -0.06366354 -0.05489873 1.6447864
000120 b3 47 02 bf 01 a3 4a 40 ef 7d e2 3f 55 fe 16 bf
       -0.50890654 3.166199 1.7694682 -0.5898183
000130 b6 e5 f1 3e a9 cc 39 c0 e3 df 49 bf ce fb 84 bf
       0.47245568 -2.9031165 -0.7885725 -1.0389345

conv1.lin.bias f4 [16]
000000 e6 de 43 be 21 7b cd be 22 aa a2 be f3 6c 03 be
       -0.19127998 -0.40133002 -0.31770426 -0.1283453
000010 74 34 43 be e0 fe a1 be 06 36 3f be 5d c3 68 be
       -0.19062978 -0.31639767 -0.18672952 -0.22730775
000020 27 f4 33 be 52 1b 0b be 87 4c 34 be 04 0a b0 bd
       -0.17573605 -0.1358464 -0.17607318 -0.0859566
000030 8f 9c 22 be 93 f0 e2 be 2f 6e 8a be 22 bb 34 be
       -0.15880035 -0.4432417 -0.27037188 -0.1764951

fc.weight f4 [4, 16]
000000 29 f9 e8 3d af 7b e6 bd 60 f7 51 3e 62 19 1f 3f
       0.113756485 -0.112540595 0.20504522 0.62148106
000010 7d b5 20 be 50 98 47 be 9d d5 6e ba 27 59 83 bf
       -0.15694232 -0.19491696 -0.00091108104 -1.0261582
000020 da e4 2d 3e 0d b9 21 3f 30 aa 3f 3e 5f d2 63 bb
       0.16981831 0.6317299 0.18717265 -0.0034762842
000030 b3 4d 0d 3f ba 7b 2b 3e ef ed 27 40 1c 4f 9f bf
       0.55196685 0.16746417 2.6238973 -1.2446017
000040 35 dd 48 be e1 f8 2f 3e f4 a0 90 bd 2b b2 a7 3f
       -0.19615634 0.17184784 -0.07061949 1.3101248
000050 0a c2 4b 3e 76 a6 00 be ee 10 98 3f 2e 83 93 3e
       0.19898239 -0.125635 1.1880167 0.2881102
000060 f4 8c d1 3f 63 cd a6 3f da 07 a6 3d 1c e9 00 be
       1.637114 1.3031429 0.08106966 -0.12588924
000070 1c a7 99 3f 80 08 a4 3d f0 4a 03 bf 95 b3 b9 3e
       1.2004123 0.08009434 -0.5128622 0.36269823
000080 33 9a e1 bd f5 53 34 be 0c 19 22 3e 99 fc fb bc
       -0.11015739 -0.17610152 0.15829867 -0.030760096
000090 26 e0 a5 3c 16 93 71 3e 9c 30 73 3e cb bd b9 3f
       0.020248484 0.23591265 0.23749012 1.4511045
0000a0 74 71 b1 3e 93 fb 99 bd 88 3c 8c 3d 51 88 24 be
       0.3465687 -0.07518687 0.06847483 -0.16067626
0000b0 27 44 09 3e 68 38 e6 bd 00 fe 1a c0 14 b8 90 3f
       0.13404904 -0.112412274 -2.421753 1.1306176
0000c0 7e b3 2a 3e 10 b2 73 bc 68 8c 62 3e 28 ff 77 c0
       0.16670033 -0.014873996 0.22123873 -3.8749485
0000d0 57 43 c4 bc 26 79 44 3e 57 18 7f c0 72 ed 19 bf
       -0.023957891 0.1918684 -3.9858606 -0.6012794
0000e0 68 b7 ce c0 28 3f 49 c0 ef 1e 1c 3e 43 8e 2f 3d
       -6.4598885 -3.1444798 0.15246175 0.04286028
0000f0 75 33 48 c0 c0 cc 14 bd 28 51 8f bf 45 76 45 bf
       -3.1281407 -0.036328077 -1.1196642 -0.7713359

fc.bias f4 [4]
000000 53 a2 6b 3e 99 4e f7 bf 61 30 35 bd f5 fe 1a 40
       0.2301114 -1.9320861 -0.04423559 2.4218113
