brain_region_division/Automatically-learned-division/RGNN_Leiden/emotion_model - 副本/RGNN_1.pt (torch, 10267 bytes, 5 tensors)

edge_weight f4 [1953]
00000000: d8cb 9d3f 0f83 6f3e f60f 983f 3aa5 913e
00000010: 2962 853e c7aa c63f 3547 c63d db58 b13d
00000020: 7427 f53b c8a1 833f 66b1 223e da14 ae3d
00000030: 54a3 0e3d 6d6b a43d 6bc3 873f 9ada 373e
00000040: 8829 cd3d 70b0 293f c5ba 893b 17d8 1f3c
00000050: a413 f23f 0c8b 583c 8946 4e3c ec82 473c
00000060: f8bc 1e3d a1ac 473d e4a1 cb3a 8465 743f
00000070: 4897 963d f5de ce3d 69aa 293a ecbf 843d
00000080: 5ba5 9f3d 803e 6d3c 1ba7 26be 95c0 7d3f
00000090: 39c8 3f3d 6b84 8f3d d436 853d d8ef 483d
000000a0: 50f4 a33d 3119 c23b aa20 923b 2698 9a3d
000000b0: 138f 933f 8831 893c b69c 5a3c 6cb5 533c
000000c0: cf1a 483c f405 8d3c 3188 9bbb f8fd 93bd
000000d0: 69bf 153d df75 7d3d 1db8 893f 8e5e 823c
000000e0: 5c0b 303d 988d ad39 f938 9d3c aee9 5a3d
000000f0: 1e5e 14ba 8c0c eb3b b981 143d fdd8 663d
00000100: f9dd aa3d b2cf 8f3f 82e1 3d3c baa4 513c
00000110: 1513 77bc 8bd5 bcbc 3cee c73c e045 f7bd
00000120: 62c0 ecbd a84f 243c 4869 2c3c 5a7d 553c
00000130: 63c9 b23d d0bd 953f e220 b63a 0cdc b33a
00000140: 3dab 253c b2ca f0bd 9204 113c 95f8 69bd
00000150: cb1c 58be 5b9d 73bd 7353 103a 4461 1abd
00000160: e0a8 a73b 29d9 423d a53d 7f3f 2630 613e
00000170: c2e5 bd3d 47d5 b63e a0e6 5f3b 648b 403c
00000180: 2d17 d63e b144 033b 3561 513c cbd5 083d
00000190: d222 353c 78ca 253c 62fc cfbd 10b5 21bd
000001a0: adb1 a53f df8f 3cbe 87d5 17be 9e5a 2ebe
000001b0: 9a1b adbd 4635 a7bd 1987 35bd 1dda c8bd
000001c0: fa8c 23be 7744 19be b060 88bd c76c dcbd
000001d0: 62e8 99bd 4d22 edbd 1605 a6bd e9db 683f
000001e0: 2d2e 223d 4818 603d e6d2 893c eae7 193d
000001f0: 8288 843d ab89 a93b 074c 54be 46e4 26bd
00000200: 27d5 a93c 2b15 1dbd 05ac bb3b 364b 9ebd
00000210: ab1a 21be 5b8c a53b 086e 14be 103d 733f
00000220: d010 a83d 2cce 083e e351 c539 e04d b43d
00000230: 7f24 213e 53de 803c f64a a63b 3538 6c3d
00000240: 59f9 e73d 30c2 553d 48d5 d23d b434 703d
00000250: c344 7b3b 581c 81bc 7138 34be 50d0 843c
00000260: 7ce3 9a3f ced1 133e d16f ae3d d2a6 c23e
00000270: 86ca 12b9 0f40 2f3b ec4e d53e 82b2 8cb4
00000280: 8b4b 7a3b d42b 813d 475a 3f3c 629e 6f3b
00000290: 34eb 6fbd 8112 7ebc 71f2 7b3e fc25 93bb
000002a0: 5157 983c 680f 0bba aac4 9f3f 5950 493c
000002b0: 0749 393c 3318 8e3b 9804 873d 46e1 2b3d
000002c0: 1e14 99bb 6f2d e93c bd94 3e3d 97a8 5d3c
000002d0: 6270 94bc 3b38 ea3c 892b afbc f304 07be
000002e0: 5222 5f3b b9e0 4ebc 5345 9abd c4f6 2c3d
000002f0: 0154 003c 1082 853f 9437 1f3c 7735 643b
00000300: 430a 2fbc e800 843c dac4 603c 172e adbc
00000310: d7e6 6a3d 3ba5 ee3c c6fb 0337 28ae 1d3c
00000320: 9489 2c3c f7b2 043e 6cc1 23bc 5ee5 25bd
00000330: a182 6b3c c951 9ebd f4c2 573c cc61 c9bd
00000340: 1c04 9e3c 5d42 8e3f 99c6 79bd 2b1b 93bd
00000350: adbb 49bc e7b4 e1bd 8449 ffbd 0bdc aebc
00000360: 0391 43be 4ecb a9bd dd6f babd 4da4 b2bd
00000370: eb30 7fbd eaf7 f9bb 005f 06bd c63c 5cbc
00000380: f589 633b d017 1cbe 9db8 96bc 960f 83bd
00000390: 6699 59be ddb6 a4bc 592a 803f 1b41 08be
000003a0: 5b3b 0fbe 9508 7dbe a568 dfbc 9905 50bd
000003b0: 6ccd 8cbd f53e d9bb a2f4 60bd 9e71 b0bd
000003c0: 2743 67bd 02ca 85bd 0e3e 8c3c 9eb0 523c
000003d0: 96cc 86be 39d2 113d a33c 50bd 1495 99bb
000003e0: 7176 1abe c464 4ebd b041 4e3c 44ba a23b
000003f0: 2066 8b3f 465a fc3d 18bf 1e3d 6303 b33e
1.2327833 0.23389839 1.1879871 0.2844637 0.26051453 1.5520867 0.096815504 0.08659526
0.00748151 1.0283747 0.15887985 0.08500071 0.03482373 0.08028302 1.0606512 0.17954484
0.10017687 0.6628485 0.004203173 0.00975611 1.8912244 0.013216745 0.012590059 0.01217721
0.038754433 0.048748616 0.0015535918 0.954674 0.07353073 0.101011194 0.00064722315 0.06481919
0.07795211 0.014480233 -0.16274683 0.9912198 0.046821807 0.070076786 0.06504598 0.049056858
0.08005583 0.005923413 0.0044594603 0.07548551 1.1528038 0.016747251 0.013343027 0.012921672
0.012213423 0.017214753 -0.00474646 -0.07226175 0.036559496 0.06187999 1.0759312 0.015914228
0.042979583 0.00033102627 0.019192206 0.05344551 -0.00056597765 0.0071731266 0.036256526 0.05635928
0.08343119 1.1235259 0.01158941 0.0127956215 -0.015080233 -0.023051044 0.024405591 -0.120738745
-0.115601316 0.010028757 0.010523148 0.013030374 0.08729818 1.1698551 0.0013895298 0.0013722195
0.010111627 -0.11757411 0.008851187 -0.057121832 -0.21104734 -0.059476238 0.0005505599 -0.037690416
0.005116567 0.04757038 0.9970344 0.21991023 0.092723384 0.35709593 0.0034164563 0.011751983
0.41814557 0.0020029957 0.012779524 0.033407014 0.011055665 0.010119073 -0.1015556 -0.039479315
1.2944847 -0.18414257 -0.14827548 -0.17026755 -0.0845253 -0.08164458 -0.044318292 -0.09807227
-0.15971747 -0.14967524 -0.06659067 -0.10762935 -0.07515027 -0.11578808 -0.08106439 0.90960556
0.039594818 0.054710656 0.016824197 0.037574686 0.06471349 0.005173882 -0.20732127 -0.040745042
0.020731522 -0.038350265 0.0057272934 -0.07729189 -0.1573283 0.005052132 -0.14495099 0.9501505
0.08206332 0.13359898 0.00037635778 0.08803916 0.15736578 0.015731012 0.005074854 0.05767079
0.11326856 0.052187145 0.102945864 0.05864401 0.0038340546 -0.015760586 -0.17599656 0.016212612
1.2100673 0.14435503 0.08517421 0.380179 -0.00013999091 0.0026741063 0.41661775 -2.6206914e-07
0.0038192 0.06307188 0.011679239 0.003656291 -0.058573917 -0.015507341 0.24604203 -0.004490612
0.018596323 -0.0005304725 1.2481892 0.012287223 0.011308915 0.004336381 0.06592673 0.041962884
-0.0046715876 0.028464047 0.046528567 0.0135289645 -0.018119995 0.028591266 -0.021383064 -0.13185482
0.0034047556 -0.01262682 -0.07532754 0.04222752 0.007832528 1.0430317 0.009717841 0.0034821907
-0.010683599 0.016113713 0.013718808 -0.021140141 0.057349052 0.029131522 7.866829e-06 0.009624042
0.010530848 0.12958895 -0.009994846 -0.040501945 0.014374406 -0.07730443 0.013169039 -0.098331064
0.019289069 1.1114002 -0.060980413 -0.07182916 -0.012312812 -0.110208325 -0.12465194 -0.021345159
-0.19098286 -0.082907304 -0.091033675 -0.08722744 -0.06230251 -0.0076284306 -0.032805443 -0.013442224
0.003471968 -0.15243459 -0.018398577 -0.06399457 -0.21249923 -0.020106727 1.0012923 -0.13306086
-0.13987486 -0.24710305 -0.027271578 -0.05078659 -0.068751186 -0.0066298195 -0.0549208 -0.08615421
-0.056460526 -0.065326706 0.017119434 0.012859492 -0.26327962 0.035600875 -0.050839078 -0.004686961
-0.15084244 -0.050389066 0.012588903 0.0049660522 1.0890541 0.12321906 0.03875646 0.3496352

conv1.lin.weight f4 [16, 5]
00000000: 0760 25bf abfc 50bf bc97 48be 2d1c 573f
00000010: 72b5 11bd d8ad d03e aaac 7b3e 5aec 173f
00000020: 92f3 0240 1c38 8f3f 42d8 8abf 73bc 903e
00000030: 78aa 253f 9693 ae3e 484c 01bf 9c8f 703d
00000040: 6f5f c7be 022d 06be 8ac4 f73e a107 c6be
00000050: e21e 4d3d 1096 eebe 81fb 31be 92fe b9bd
00000060: 832d a1bb 49ac f6be 4bb4 453c 2bc0 283f
00000070: ff61 afbe 60d6 1ebe 890b 743e efde 7a3e
00000080: 3c88 85be abf8 d13e a03e 1cbe dd63 113f
00000090: 8971 973e 5e2f 45be 41b2 bdbe 1aef 76bd
000000a0: b002 c9be 05ea 4b3e b54a c7be bb94 43be
000000b0: 61a8 71bd c536 6a3e a932 293e cad7 3b3e
000000c0: 266b bc3e 078f 6cbc 1e2d 8bbd ae9f 5abe
000000d0: 8bba e7bd 2b94 adbe a6f6 be3e 40a9 8f3e
000000e0: f160 253e 8e20 183e 95ad db3a 1cea 70be
000000f0: 018e e23e 1460 f1bd e958 82bd 8cb2 91be
00000100: 46eb 87be 404e d43d 9275 973e ce62 9ebe
00000110: 9a53 dabe ea01 b3bd 1c9e 2fbf 6449 e83e
00000120: d4d7 e8be 9326 fdbe e689 2c3e cc7a c33e
00000130: d5c9 ed3d dfa4 9abe 694e 683c 8c9f c9be
-0.6459965 -0.8163554 -0.19589132 0.8402737 -0.03557343 0.40757632 0.24577585 0.5934502
2.0461164 1.1188998 -1.0847247 0.28268775 0.6471324 0.34096974 -0.5050702 0.058730707
-0.38939998 -0.13103107 0.48392135 -0.38677695 0.05007828 -0.46598864 -0.17381097 -0.090817586
-0.0049187555 -0.48178318 0.012066911 0.65918225 -0.34254453 -0.15511465 0.23832525 0.24499105
-0.260805 0.4101003 -0.15258265 0.56793004 0.29578808 -0.1925635 -0.3705006 -0.06028662
-0.39259863 0.1991349 -0.38924184 -0.19099705 -0.05899847 0.22872455 0.16523232 0.18344036
0.36800498 -0.014438397 -0.06795715 -0.21349975 -0.11314877 -0.33902106 0.37297553 0.28058815
0.16150261 0.14856169 0.0016760105 -0.23526806 0.44248965 -0.117859036 -0.063646145 -0.28456533
-0.26546687 0.103664875 0.29581887 -0.30934757 -0.42641908 -0.087405995 -0.6860063 0.45368493
-0.45477164 -0.49443492 0.16849479 0.38179624 0.11610762 -0.30203912 0.014178851 -0.39379537

conv1.lin.bias f4 [16]
00000000: c9b8 0b3d 9c47 00be a69b 40bd 74de e5bd
00000010: f72d abbe d65e e8bb 7378 083d 6d2e c4bd
00000020: 3fb3 24be bdad a0be 5b34 0ebe e50d 6f3d
00000030: 6d44 1cbe 28b9 1abe 5462 ee3c 685f 9cbe
0.03411177 -0.12527317 -0.047023438 -0.1122407 -0.33433506 -0.0070913834 0.033317994 -0.095791675
-0.16084002 -0.31382552 -0.1388716 0.05836286 -0.15260477 -0.15109694 0.02909962 -0.3054154

fc.weight f4 [4, 16]
00000000: 153d 4d3e 6aec 28bf 0dd3 c8be f429 e8bd
00000010: 7562 dcbc f2df 04be 1a1d 173e 597f 14be
00000020: 8226 e63d b3cc 7ebe 87cd 1c3e b8d2 5fbd
00000030: 7848 70bd 40f8 dfbc 4c01 fa3d c4d5 d93d
00000040: ec24 4e3e 2735 3ebf c8fa 6f3f 7b5c 053e
00000050: 0646 943e 7423 b53e 67f0 e83d 3489 33bd
00000060: 1b09 163e 7d2c 3b3e b2c5 9c3d f6d0 c6bd
00000070: 52a1 a83d f9b1 84bd 7027 f4bd ad67 4b3e
00000080: de0f 07be 9b33 bf3f 5bbc 563e 3544 0dbe
00000090: 4933 c7bd a896 173e 3356 f53d d4e9 36be
000000a0: e686 773e 003b 503e 3218 1f3d e6dc a7bd
000000b0: b459 83bd 891b 613e 6b93 cbbd 99c6 ac3d
000000c0: e9ed 8dbe bdc9 46bf 37ad 3bbf e987 65bd
000000d0: 52f9 74bd 13b1 0ebe ab28 203e a10e a1be
000000e0: b287 82be 4a86 88be f774 2bbe 8760 52bd
000000f0: 54ea f4bd b800 c0bc 29b3 5e3e f534 74be
0.20042832 -0.6598574 -0.3922352 -0.11336127 -0.026902417 -0.12976053 0.14757195 -0.14501704
0.112378135 -0.24882774 0.15312777 -0.054644316 -0.05866286 -0.027340055 0.122072786 0.10636476
0.20131272 -0.74299854 0.93742037 0.1302356 0.28959674 0.3537861 0.11373978 -0.04383202
0.14651911 0.1827869 0.07654895 -0.09707825 0.082338944 -0.06479258 -0.119215846 0.19863768
-0.13189647 1.4937624 0.2097029 -0.1379555 -0.09726579 0.14803565 0.11979332 -0.17862636
0.24172553 0.20335007 0.038841434 -0.0819643 -0.06413594 0.2198316 -0.09940227 0.08436317
-0.27720574 -0.7765158 -0.7331118 -0.056037817 -0.059808083 -0.13934736 0.15640514 -0.31456473
-0.25494152 -0.26664954 -0.16743837 -0.051361587 -0.11958757 -0.023437843 0.21748032 -0.23848327

fc.bias f4 [4]
00000000: a0df 763e 54f8 00be b3f8 babe a71e 903e
0.24108744 -0.1259473 -0.36517867 0.28148386
