brain_region_division/Automatically-learned-division/RGNN_Leiden/emotion_model - 副本/RGNN_15.pt (torch, 10267 bytes, 5 tensors)

edge_weight f4 [1953]
0	0x3fcbf533	1.5934204
1	0xbed7ecc4	-0.42172825
2	0x40598be6	3.3991637
3	0xbe28b171	-0.16473939
4	0x3f5cd231	0.86258227
5	0x3fcdd09e	1.607929
6	0x3ca8422f	0.020539371
7	0xbf5d3138	-0.86403227
8	0xbdd54b13	-0.1041471
9	0x3f85d228	1.045476
10	0xbedd479a	-0.4321869
11	0x3f511dc0	0.8168602
12	0x3f209200	0.6272278
13	0xbe626eb7	-0.22112547
14	0x3fd91426	1.6959274
15	0xbe2cade8	-0.16863215
16	0x3f79e6a0	0.9761753
17	0x3f2107f5	0.62902766
18	0xbecac9a2	-0.3960696
19	0x3f29ddbb	0.6635396
20	0x3ffb937b	1.9654382
21	0x3eb29d8a	0.34885818
22	0xbea03008	-0.31286645
23	0xbf0e17ac	-0.5550487
24	0x3c0aa63b	0.008462484
25	0xbf246198	-0.64211416
26	0xbeb30b49	-0.34969547
27	0x3fea5646	1.8307579
28	0x3f11cd38	0.56953764
29	0xbe517f32	-0.20458677
30	0xbde1350b	-0.10996445
31	0x3bd22d72	0.006414109
32	0xbe46b772	-0.19405916
33	0xbe25f811	-0.16207911
34	0x3f2bcfc5	0.67113906
35	0x3fc56c46	1.5423667
36	0xbde81a1b	-0.11333104
37	0x3f2cbd3a	0.67476237
38	0x3d1e8ed9	0.03871045
39	0xbeb2d2a1	-0.34926322
40	0x3d1a7c98	0.037716478
41	0x3dec9d71	0.11553467
42	0xbdb60a5e	-0.08888696
43	0xbd441a50	-0.047876656
44	0x3fee1617	1.8600491
45	0x3cd49a85	0.025952587
46	0xbeff0332	-0.49807125
47	0xbe8bee24	-0.27330124
48	0x3c603bc2	0.013686122
49	0xbd82cafc	-0.063863724
50	0xbed267df	-0.41094872
51	0x3a6ed233	0.00091103016
52	0x3df0cc53	0.11757722
53	0x3e55ed1f	0.20891236
54	0x3f461ae3	0.77384776
55	0x3d044640	0.032293558
56	0xbf76d301	-0.96415716
57	0xbefd3d6c	-0.49460924
58	0x3dbdd905	0.09269909
59	0xbefc4ee1	-0.4927893
60	0xbf023492	-0.50861466
61	0x3d2118df	0.03933036
62	0x3ea18191	0.31544164
63	0xbdf94993	-0.12172236
64	0x3d46aa31	0.04850215
65	0x3f48e0ac	0.7846782
66	0x3df4e6a6	0.11958055
67	0xbfc707ed	-1.5549294
68	0xbf04c460	-0.51862144
69	0x3e524da0	0.20537424
70	0xbf421166	-0.758078
71	0xbf4269c8	-0.7594266
72	0x3aecf98a	0.001807974
73	0x3e86762c	0.26262033
74	0xbf20bc50	-0.6278734
75	0x3e2ef595	0.1708587
76	0x3ec0d48c	0.3766216
77	0x3fb12e60	1.3842278
78	0x3cebc722	0.028781477
79	0xbf86766a	-1.0504887
80	0xbf147f42	-0.5800668
81	0x3e832c47	0.25619718
82	0xbf4aacc4	-0.7916987
83	0xbf3cc15a	-0.7373253
84	0x3e5f0fcb	0.21783368
85	0x3de660f7	0.11248963
86	0xbed7b55d	-0.42130557
87	0x3d314f60	0.04328859
88	0x3e7c8f10	0.24663949
89	0x3f322626	0.6958946
90	0x3f941c0c	1.1571059
91	0xbcd0d789	-0.0254934
92	0x3f966e28	1.1752367
93	0x3e6b856a	0.23000112
94	0xbfb82570	-1.4386425
95	0x3f22c8cd	0.6358765
96	0x3f43407a	0.7627026
97	0xbe649c30	-0.22325206
98	0x3c02df29	0.007987776
99	0x3f66fdc4	0.90230966
100	0xbe9738ea	-0.2953561
101	0xbf44708f	-0.7673425
102	0xbf24abaf	-0.6432447
103	0xbf881930	-1.0632687
104	0x3fb7bb60	1.4354057
105	0xbf20cefa	-0.6281582
106	0xbfd5b2d8	-1.6695204
107	0xbf17a200	-0.5923157
108	0x3f29c423	0.66314906
109	0xbed0751f	-0.40714356
110	0xbf4e4a69	-0.8058229
111	0xbeac4956	-0.336497
112	0xbe411a56	-0.18857703
113	0xbe8632d6	-0.2621066
114	0x3e5ed13a	0.21759501
115	0x3eca8321	0.39553168
116	0x3ea5f8cb	0.32416376
117	0x3d599718	0.05312261
118	0xbf7a5cc5	-0.97797805
119	0x4055d9c5	3.3414166
120	0xbed279fb	-0.4110869
121	0xbf910846	-1.133065
122	0xbe515f21	-0.20446445
123	0x3f6b3e6a	0.9189211
124	0xbe700eb5	-0.2344311
125	0xbedb06be	-0.4277858
126	0x3e18ced5	0.1492265
127	0xbda5e48b	-0.08100232
128	0xbe10dbac	-0.14146298
129	0x3c9d4e21	0.019202294
130	0x3e310129	0.17285599
131	0x3d99088b	0.074723326
132	0x3f6aa7ac	0.91662097
133	0xbfc6f290	-1.5542774
134	0x3f1d09b6	0.6134294
135	0x404feb47	3.2487352
136	0x3f960d6b	1.1722845
137	0xbfba20e4	-1.4541287
138	0xbf31946a	-0.69367087
139	0x3ddc2812	0.1074983
140	0xbf1873b3	-0.59551543
141	0xbf29caf0	-0.66325283
142	0x3ed2e9ea	0.41194087
143	0x3e7ced32	0.24699858
144	0xbd43110e	-0.047623686
145	0x3e2f5143	0.17120843
146	0x3ea22780	0.3167076
147	0x3f7ad969	0.9798799
148	0x3f316e53	0.69308966
149	0xbe3978ec	-0.18112534
150	0x3c328be5	0.010897611
151	0xbcad31e6	-0.021141957
152	0x3fbea9ad	1.4895531
153	0x3f2c1efd	0.67234784
154	0xbf9ee0d2	-1.241236
155	0xbf19d872	-0.60095894
156	0x3eba03c4	0.36330998
157	0xbf2d452a	-0.6768366
158	0xbf2ef6c1	-0.68345267
159	0x3e8057bc	0.25066936
160	0x3e18283e	0.14859101
161	0x3b33a10d	0.0027409226
162	0x3db3ee30	0.08785665
163	0x3e9f8d53	0.3116251
164	0x3f47e074	0.78076863
165	0x3f23695a	0.6383263
166	0xbf4c01cc	-0.7969024
167	0x3de13f5a	0.109984115
168	0x3d351159	0.044205997
169	0x3eb65e74	0.35618937
170	0x3f9045b2	1.1271269
171	0x3ee8ec71	0.4549289
172	0xbf7e2828	-0.99280024
173	0xbebc4946	-0.36774653
174	0x3e9585c6	0.29203624
175	0xbe949d2b	-0.2902616
176	0xbeef1814	-0.46698058
177	0x398eb3c1	0.00027218278
178	0x3da26a0a	0.079303816
179	0x3d17bc59	0.037044857
180	0x3d8f5f53	0.070006035
181	0x3e2b8b0a	0.16752258
182	0x3ebe1623	0.37126264
183	0x3e2387d6	0.15969786
184	0xbf181534	-0.59407353
185	0x3ed04d56	0.40684003
186	0x3c8b6aa1	0.017018618
187	0x3e05961d	0.13045545
188	0x3dd53ca3	0.10411956
189	0x3f865763	1.0495418
190	0x3f071401	0.527649
191	0xbf8e0b4a	-1.1097195
192	0xbee52974	-0.4475819
193	0x3e974ef9	0.2955244
194	0xbebd9949	-0.3703101
195	0xbf0ca4fe	-0.5493926
196	0x3e0d4e5a	0.1379942
197	0x3d8640cf	0.0655533
198	0xbc3c580a	-0.0114955995
199	0x3dc5497d	0.096331574
200	0x3ea63ec9	0.32469776
201	0x3f246846	0.6422161
202	0x3ef0a1d8	0.46998477
203	0xbf69a0bd	-0.9126089
204	0x3ea1182f	0.31463763
205	0x3c8b2e29	0.016989784
206	0x3e222ee9	0.15838207
207	0x3df27940	0.11839533
208	0x3dde5568	0.10856134
209	0x3f7b9351	0.9827166
210	0x3e9eece1	0.310401
211	0xbe86e52d	-0.26346722
212	0x3c355948	0.01106865
213	0x3f2b82ad	0.6699627
214	0x3bd07b88	0.0063623823
215	0x3bca4a02	0.006173373
216	0x3e8b851d	0.27249995
217	0xbebaf5f1	-0.36515763
218	0xbd9bac3a	-0.07601209
219	0x3e91fbec	0.28512514
220	0x3f136565	0.5757659
221	0x3ef3242b	0.4748853
222	0x3f0d319f	0.5515384
223	0xbcc69ec7	-0.024245633
224	0x3cec7dbb	0.028868547
225	0x3e6affdd	0.22949167
226	0x3e893ce5	0.2680427
227	0x3f0c9ef5	0.5493005
228	0x3f1dd6a2	0.6165563
229	0x3f1d05d5	0.61337024
230	0x3f373e3a	0.71579325
231	0x3ef9ee80	0.48814774
232	0x3eaf405b	0.34228787
233	0x3e3cde07	0.18444072
234	0x3cbb3cdd	0.02285617
235	0xbd4f5fbe	-0.050628416
236	0x3cb83b0e	0.022489097
237	0x3c054745	0.008134668
238	0x3e77d6e8	0.24203074
239	0x3e293dbf	0.1652746
240	0x3e96488d	0.29352227
241	0x3bfb7596	0.0076739294
242	0xbd1901ea	-0.03735534
243	0x39ffb95c	0.00048775494
244	0x3e5111d5	0.20416959
245	0xbeae3fa4	-0.3403293
246	0xbea9a28c	-0.33131826
247	0x3d9fd9b4	0.078051955
248	0x3c7fe6e9	0.015619018
249	0x3c4ca2a7	0.012489951
250	0x3ca2cc5e	0.01987284
251	0xbeae408e	-0.34033626
252	0x3f812a62	1.0091059
253	0x3f866314	1.0498986
254	0x3d72dc20	0.05929196
255	0x3c81db3f	0.015851615

conv1.lin.weight f4 [16, 5]
0	0x3fa64808	1.2990732
1	0xbf14135c	-0.5784204
2	0xc04e6dca	-3.225451
3	0x3ea76cc0	0.32700157
4	0x3f228831	0.6348906
5	0x3e07f18e	0.1327574
6	0xbebba4c8	-0.36649156
7	0x4009bec2	2.152268
8	0xbfaf4849	-1.3693935
9	0xbefbc203	-0.49171457
10	0xbee328e5	-0.44367138
11	0x3fa62a39	1.2981635
12	0xbfacea05	-1.3508917
13	0xbe22d5d7	-0.15901886
14	0xbfa00609	-1.2501842
15	0x3f0ca7b1	0.54943377
16	0xbf8220eb	-1.0166296
17	0x3ff4955c	1.9108081
18	0xbf7be891	-0.98401743
19	0x3ebf5d67	0.37375948
20	0x3ea383f3	0.31936607
21	0xbf6fac3a	-0.9362217
22	0x40050e62	2.0790029
23	0x3f9832da	1.1890519
24	0x3f896c8c	1.0736251
25	0xbeaa8924	-0.33307755
26	0xbf11e2e6	-0.56986845
27	0xbeef8794	-0.46783125
28	0xc029b73d	-2.651809
29	0xbfa6b6cd	-1.3024536
30	0x3e8f040c	0.27932775
31	0xbe94ab6c	-0.29037035
32	0xbeb7d89c	-0.35907447
33	0x3d89b3a2	0.06723715
34	0x3e002a60	0.12516165
35	0xbd915f10	-0.0709821
36	0x3df2e9c8	0.118609965
37	0x3ec646e6	0.38725966
38	0xbe81ba8c	-0.25337636
39	0x3daff183	0.085909866
40	0x3f8b7de2	1.0897791
41	0xbeebcddd	-0.460555
42	0xc0173230	-2.3624382
43	0x3f48ea85	0.7848285
44	0x3f8617bd	1.0475994
45	0xbd88a9c8	-0.06673008
46	0xbd8b0b6a	-0.067892864
47	0xbdf163d6	-0.1178662
48	0xbd33bec6	-0.043883108
49	0xbe810926	-0.25202292
50	0xbc4de2a0	-0.012566239
51	0xbeac48b7	-0.33649227
52	0x3dc105e0	0.09424949
53	0x3ed36062	0.41284472
54	0xbe1d6428	-0.15370238
55	0x3e1c607f	0.15271185
56	0xbed28b96	-0.4112212
57	0x400763fd	2.1154778
58	0xbfb5dca6	-1.4207962
59	0xbeec25a0	-0.46122456
60	0xbebe16bc	-0.3712672
61	0x3e933ec8	0.28758836
62	0x3e500dad	0.20317717
63	0xbe2f0a55	-0.17093785
64	0xbd65621f	-0.05600178
65	0x3de81f43	0.11334088
66	0xbc465bc5	-0.0121068405
67	0x3fd440f7	1.6582326
68	0xbf9c254c	-1.2198882
69	0xbf1a5830	-0.60290813
70	0x3e5d9e3d	0.21642394
71	0x3fb4b409	1.4117442
72	0xbfe74a2f	-1.8069514
73	0xbe0cd647	-0.13753615
74	0xbfcf407f	-1.6191558
75	0xbf364c28	-0.71209955
76	0xbed97c95	-0.4247786
77	0xbf1d8225	-0.6152671
78	0x3f065ae5	0.52482444
79	0x402abad1	2.6676524

conv1.lin.bias f4 [16]
0	0xbe17302c	-0.1476447
1	0xbd784f29	-0.060622368
2	0xbd954962	-0.07289387
3	0xbd6fe24f	-0.058565434
4	0xbda7398b	-0.08165272
5	0xbe060e2f	-0.13091348
6	0xbec13e5d	-0.37742892
7	0xbe5bc0fd	-0.21460338
8	0xbd224c94	-0.03962381
9	0xbe8d4765	-0.27593532
10	0xbe9eb7e6	-0.30999678
11	0xbd25634f	-0.04037791
12	0xbe725920	-0.23666811
13	0xbd63b4bb	-0.05559228
14	0xbe6501d5	-0.2236398
15	0xbe9b2ec2	-0.3030911

fc.weight f4 [4, 16]
0	0x3f1a2709	0.6021581
1	0x3d902ee0	0.07040191
2	0x3ee4c42e	0.44680923
3	0xbf0507ec	-0.5196521
4	0x3f00de88	0.50339556
5	0x3d3b91cc	0.04579334
6	0x3cb192f9	0.021676527
7	0xbd9aa4c7	-0.0755096
8	0x3b18a31c	0.002329058
9	0xbd0f7537	-0.035023894
10	0xbe231d1c	-0.15929073
11	0x3e772b96	0.2413772
12	0xbd368ac4	-0.04456593
13	0x3dd260d5	0.102723755
14	0x3f3758c6	0.7161983
15	0x3f689621	0.9085408
16	0xc016fc2b	-2.359141
17	0xbee7094c	-0.4512428
18	0x3e6ba5f6	0.23012528
19	0x3b78cbd8	0.0037963297
20	0x3f1170f2	0.56812966
21	0x3e627b81	0.22117426
22	0x3e3445f8	0.17604816
23	0x3e3dc113	0.18530683
24	0x3db5dbbf	0.08879804
25	0x3e2079ec	0.1567151
26	0xbe7338d4	-0.23752147
27	0xbedfc54b	-0.4370521
28	0x3e5e42f0	0.21705222
29	0xbee61c9f	-0.4494371
30	0x3dc59596	0.09647672
31	0xbeb1c11f	-0.34717652
32	0xbee6d25c	-0.45082366
33	0x3e129994	0.14316398
34	0xbf11d893	-0.5697109
35	0xbc534348	-0.012894459
36	0x3eb7910b	0.35852847
37	0x3e3ae7c1	0.1825247
38	0xbcd7e33c	-0.026353471
39	0x3e88f04c	0.26745832
40	0xbee780ae	-0.45215362
41	0xbe162776	-0.1466349
42	0x3daf42b4	0.085576445
43	0x3e7ffa06	0.2499772
44	0xbda8e676	-0.08247082
45	0x3ce34c4b	0.02774634
46	0xbf246e67	-0.6423096
47	0xbfb7cbdd	-1.4359089
48	0x3fc5ed3e	1.5463026
49	0x3e35d1f4	0.17755872
50	0xbf2e76cb	-0.68150014
51	0x3e0106ed	0.12600298
52	0xbf379010	-0.71704197
53	0xbf66fcb3	-0.9022934
54	0x3d883dec	0.06652436
55	0xbcc1eb2a	-0.023671705
56	0x3e9b4524	0.30326188
57	0x3e7c485e	0.24636981
58	0xbda28590	-0.07935631
59	0x3ead706f	0.33874843
60	0x3d1cb821	0.038261537
61	0x3dfd942c	0.12381777
62	0xbe636c00	-0.22209167
63	0x3f39fe06	0.72653234

fc.bias f4 [4]
0	0xbf4a3adf	-0.7899608
1	0x3f004131	0.50099474
2	0x3f690493	0.91022605
3	0xbf052609	-0.5201116
