brain_region_division/Automatically-learned-division/RGNN_Leiden/emotion_model - 副本/RGNN_7.pt (torch, 10267 bytes, 5 tensors)

edge_weight f4 [1953]
000000 80 59 06 40 32 69 11 3b db 7d c5 3f 84 9e 57 3d
       2.0992126 0.0022187945 1.5429033 0.052641407
000010 02 79 9b 3c 8a 29 b5 3f 49 95 86 3f b6 ab 23 3b
       0.0189786 1.4153302 1.0514308 0.0024974174
000020 e8 5c 95 3d d3 6c fe 3f 24 36 fd 3c d3 a1 36 3e
       0.07293111 1.987696 0.030909605 0.17835169
000030 ca ca b6 3e a9 67 aa 3a 32 04 c7 3f dd 57 af 3b
       0.3570159 0.0013000864 1.5548155 0.0053510503
000040 e1 4c 6a be fe 58 1e 3c f3 18 24 3c 1f 05 da bb
       -0.2288089 0.009664772 0.010015714 -0.0066534425
000050 cc cf 14 40 2d eb 0b 3c 5c 68 af bc ad f0 80 3b
       2.325183 0.008539957 -0.021412067 0.003934941
000060 a2 c8 d2 3d 1c 71 74 bd c6 c4 84 3e b0 b7 a5 3f
       0.10292174 -0.059678182 0.25931376 1.2946682
000070 4a 01 03 3c 2d 6e 01 bd 05 ef bb bc 56 e4 8f 3c
       0.007995913 -0.031599212 -0.022941122 0.017564934
000080 4c e8 07 be c7 2c 10 3b 3f 10 c1 3b e8 16 6c 3f
       -0.13272208 0.0021999346 0.0058918293 0.9222245
000090 2c bf 02 3c 58 b3 21 3c 78 ab 85 bd 40 b8 2e bc
       0.007980149 0.009869419 -0.06526846 -0.010664046
0000a0 23 4f 31 bc 4f 6a 67 bb a2 8c d5 ba 7d ef 85 bd
       -0.01082209 -0.0035311168 -0.0016292522 -0.065398194
0000b0 ad 32 6b 3f 38 e0 79 3c c0 69 c9 3c 69 d3 47 b8
       0.918742 0.015251212 0.024586558 -4.764219e-05
0000c0 5a 35 52 bc b5 bd a0 3b aa 13 24 bc c7 7f 08 bd
       -0.012830103 0.0049054273 -0.010014454 -0.033324983
0000d0 6a 6e e5 3a e1 7b 1a 3d 5f 6e 8a 3f ac 52 23 3c
       0.001750422 0.037715796 1.0814933 0.009968441
0000e0 2b ac 61 3e d1 00 22 3d b9 25 73 3c 47 df 5a 3e
       0.22038333 0.03955156 0.014840537 0.21374236
0000f0 ab e1 8a bc 57 9e 28 be a6 78 1e bd ee 19 b0 3b
       -0.01695331 -0.16466652 -0.038689278 0.005374185
000100 a1 e3 d7 3d 7e 0a a8 3f 1f 48 7b bc a3 a9 e6 3b
       0.10541464 1.3128202 -0.015337019 0.0070392652
000110 f9 48 0d bd 5a 7f 57 bc e7 0b 07 3b 86 c0 7a bb
       -0.03449342 -0.013152922 0.002060646 -0.0038261726
000120 29 2f 1c be 8b 9d 11 bd a9 ea 00 3c 20 37 fc 3c
       -0.15252365 -0.035550635 0.007868447 0.030788004
000130 c9 df c0 3d c7 1a 8d 3f 99 87 ae bc 5a 36 36 bc
       0.09417684 1.1023797 -0.021304892 -0.011121357
000140 8e eb 59 be 05 d5 76 3b 80 0e b9 bd cf a9 c7 3a
       -0.21281263 0.003766359 -0.09035969 0.0015233102
000150 b4 fc 20 bc 83 9c 9e bd b4 ac 1e bd dd 80 ea 39
       -0.009825874 -0.07744696 -0.03873892 0.0004472797
000160 fa 80 2c 3b e8 36 2d 3d 26 7a 5b 3f e2 c3 0f 3c
       0.0026321993 0.04228869 0.8573326 0.008774729
000170 c6 7f 08 3c 1d 43 13 3e 5d 95 3b 3c b6 7a 97 bb
       0.008331245 0.1438107 0.011449185 -0.0046227826
000180 1d e8 7a 3b 59 a4 a5 bb 03 68 e3 bd a8 51 bb bd
       0.0038285323 -0.005054992 -0.11103823 -0.09146434
000190 69 57 93 bd cc cb 4e bc bf 22 d8 bd 0e ed 60 be
       -0.071944065 -0.012621831 -0.10553502 -0.21965429
0001a0 28 e4 94 3f 5a fb 40 bc b1 a3 bc be 50 3a d0 3b
       1.1632128 -0.011778677 -0.36843637 0.0063546076
0001b0 09 93 5f bc fe 80 fc bd dc 37 b0 3f d0 a8 f8 3b
       -0.013645896 -0.12329291 1.3767047 0.0075884834
0001c0 46 3a 98 3a 92 c9 54 bc 7a 5c 32 bc f7 35 00 be
       0.0011614047 -0.012987511 -0.010886306 -0.12520586
0001d0 a0 a0 60 bc c4 97 19 bb ed 43 56 3b e3 49 21 40
       -0.013710171 -0.0023436407 0.0032694296 2.5201347
0001e0 04 6b 4b 3f 67 fc c1 ba cb 2c e3 3d 34 f9 44 3f
       0.7946017 -0.0014799953 0.11092528 0.76942754
0001f0 bd 5d 37 3b ee 01 8f 3e b9 00 f3 3e 16 99 56 3d
       0.0027979456 0.2793116 0.4746149 0.052392088
000200 f1 3d a9 3b 01 af ec bb bb f6 22 bd a9 e8 2f bd
       0.0051648547 -0.0072230105 -0.03978608 -0.04294649
000210 7c 36 ac 3b 28 5e 05 3c e9 b5 c3 3b f9 d2 05 40
       0.0052555185 0.008140124 0.005972613 2.0910017
000220 04 9a 08 bc c3 8c cc b9 10 54 22 be 3a 1d 01 bc
       -0.008337501 -0.00039014788 -0.1585238 -0.007880503
000230 39 e0 03 bd 21 ae 57 bb cf 81 5b 3b 64 ff d6 3c
       -0.032196257 -0.0032910185 0.003349412 0.026244827
000240 f3 d3 db 3b 95 bb 9f 3b c7 4a 35 bb 71 20 94 3c
       0.006708616 0.0048746564 -0.002766298 0.018081876
000250 48 59 85 3c 6d 0c 3c be 05 91 20 3c 13 de 7c 3b
       0.016277924 -0.18364115 0.0098002 0.0038584515
000260 78 49 8d 3f 28 19 05 bc d7 8c 36 3b 83 aa e0 bd
       1.1038046 -0.0081236735 0.0027854943 -0.109700225
000270 ac fe 06 bc 9c 06 1e 3d 85 32 61 bb 1f 48 d4 b9
       -0.008239429 0.038580522 -0.0034362387 -0.00040489525
000280 85 76 2d 3d b4 28 4a 3d f8 8e 19 3d 1c 30 db 3a
       0.042349357 0.049355224 0.03748986 0.0016722712
000290 e3 3f 06 3d ef fe cf 3c fd 2a 97 bd 26 9b f7 bb
       0.03277577 0.025390116 -0.07381246 -0.007556337
0002a0 ca 21 95 bb 90 60 c6 3d a1 d3 86 3f 4e a9 41 bc
       -0.004551147 0.096863866 1.0533334 -0.011820151
0002b0 9e 65 65 3c ae 21 ca bd d6 ac 65 bc 73 11 f8 3c
       0.014001278 -0.09869705 -0.014018258 0.030281758
0002c0 ac 69 49 bc 58 09 bf 3b c0 ce 2b 3d 25 af aa 3d
       -0.012293261 0.0058299713 0.04194522 0.083341874
0002d0 88 b8 95 3d 36 cf d1 3b 48 d1 99 3d c5 b9 7c 3d
       0.07310587 0.0064028753 0.0751062 0.0617006
0002e0 ca 30 be bd 47 c9 39 bc a2 7a 43 3c 00 1e 00 3e
       -0.092866495 -0.011339492 0.011931093 0.12511444
0002f0 91 75 a3 3d d1 16 85 3f 2b 86 0e bc 47 0c 99 3b
       0.079814084 1.0397588 -0.00869898 0.004670653
000300 de f7 eb bc 59 0e 43 bc 10 a5 9c 3c db 26 4c bc
       -0.028804716 -0.011905276 0.019121677 -0.012460436
000310 72 d4 92 bd a9 c5 18 3c 87 57 86 3d 56 f7 02 3d
       -0.07169427 0.00932447 0.06559663 0.03197416
000320 16 60 46 3b cf af 19 3d 0b 36 77 3c 8f 0d e3 bc
       0.0030269674 0.03752118 0.015088568 -0.027716426
000330 3a 3e 46 bc 9c 64 9c bc c3 c9 84 3d 8d aa ae 3c
       -0.012099797 -0.019090943 0.064837955 0.02132156
000340 3f 42 3a 3d e3 e0 81 3f 6a 54 7f bc 90 2a cf 3b
       0.045473333 1.0146755 -0.015584091 0.0063222125
000350 80 3a 17 be b1 9e 30 bc 2e bd 28 3b 00 71 6b 3b
       -0.1476841 -0.0107800225 0.0025747526 0.0035925508
000360 6d 4e 10 3c 96 19 05 3d a3 b5 36 3d 56 d1 be 3c
       0.008807761 0.032495104 0.044606816 0.023293179
000370 87 d3 6e 3c 10 3b ee 3d 5d 26 5f 3d 5c 10 47 be
       0.014576799 0.11632359 0.054479945 -0.19439834
000380 74 89 a9 3b 10 59 a4 bc 5c 6a 19 3e f7 1b aa 3d
       0.0051738564 -0.020062 0.14981979 0.08306115
000390 87 69 23 3e d7 45 07 3e 39 f6 9f 3f 93 db a5 bc
       0.15958224 0.13210236 1.2497016 -0.020246303
0003a0 33 f2 a6 ba 17 38 3d be 0b 1a b7 bb 28 eb 92 bd
       -0.0012736976 -0.18478428 -0.0055878214 -0.07173759
0003b0 19 59 21 3c 3c 8e 9d 3b 3f dc e1 3b d5 be 88 3c
       0.009847903 0.0048082154 0.0068927105 0.016692558
0003c0 9c bd 3d 3c 22 0b bf bc b6 17 a2 3b f1 b3 85 3d
       0.011580851 -0.023320738 0.004946674 0.06528462
0003d0 b7 0b b2 be 63 21 e0 3b 10 20 14 bc a5 1d ea 3d
       -0.34774563 0.0068399175 -0.009040847 0.114314355
0003e0 0d b9 88 3d d2 7e e0 3d aa 24 45 39 dd 5a 6c 3e
       0.06675921 0.10961689 0.00018801042 0.23081537
0003f0 71 b2 9c 3f 75 26 bb bc bf a0 dd bd 18 b4 a9 bb
       1.2241956 -0.022845486 -0.108216755 -0.0051789396

conv1.lin.weight f4 [16, 5]
000000 e3 df 3d bf c7 ab 58 3f 8b 7d e2 3f 37 76 41 3e
       -0.7416975 0.8463711 1.7694563 0.18892752
000010 05 f6 8b bd f2 40 6d 3d 13 00 22 bf 48 5d 40 3f
       -0.06834034 0.057923265 -0.63281363 0.75142336
000020 92 84 11 be f3 72 2d 3d 1c eb 48 3e bb c3 50 be
       -0.14210728 0.042345952 0.19620937 -0.20387165
000030 0f a1 a9 be cb 2f 3b be 1f 55 ea be 1a b9 89 be
       -0.3313069 -0.1827995 -0.45768067 -0.26899034
000040 9d 80 db 3e 19 9a 57 3f 05 ae c5 be 00 ef 27 bf
       0.42871562 0.8421951 -0.3860933 -0.6559906
000050 bd b5 9d be f6 a8 b3 3e d2 de 38 be 2b a5 93 3e
       -0.30802718 0.35089844 -0.18053749 0.2883695
000060 79 ba 9e 3e f1 8e 08 3e c5 7a 9e be 3c bf a9 bd
       0.31001642 0.13335778 -0.3095304 -0.08288428
000070 83 80 50 be 09 b9 59 3e a3 3b 5c bd 5e fd 6b bd
       -0.20361523 0.21261992 -0.05376781 -0.057614677
000080 a9 dc 6e 3f 35 02 5c bf 56 82 33 bf 0e be 0a be
       0.9330545 -0.8594087 -0.7012075 -0.13549063
000090 01 7f 4d 3e 6b 9b 4a be 23 27 da 3e 7f d1 6e be
       0.2006798 -0.1978585 0.42607984 -0.23322104
0000a0 fc 89 b0 3e 1b dc 19 be 36 0b 32 3f 73 3c 44 3f
       0.34480274 -0.1502537 0.69548357 0.7665474
0000b0 1b 3a 19 3f 33 2a 25 3f 66 fd 79 3e eb a4 1c 3f
       0.59854287 0.64517516 0.2441307 0.61189145
0000c0 0e b4 d3 3e d4 0d fb 3f 2c d6 d7 be 33 65 bf 3e
       0.41348308 1.9613595 -0.42155588 0.37381896
0000d0 9e cc 66 39 ca 51 c7 3d fb 3a 24 bf d0 29 5a be
       0.00022010735 0.09732397 -0.641525 -0.21305013
0000e0 e3 03 7c 3f ec 42 34 3f 4d 06 73 3f 09 a8 45 3f
       0.9844343 0.70414615 0.9493149 0.77209526
0000f0 84 ff d4 bf 73 77 b6 3f 2b 04 04 40 92 f3 97 3e
       -1.6640477 1.4255203 2.0627544 0.29678017
000100 a0 c2 aa 3f 87 a1 73 be 55 66 69 be a8 2f 8f 3c
       1.3340645 -0.23792087 -0.22792943 0.017478779
000110 8e 8b 38 be 97 44 96 bd db 6f 12 3e 20 eb 82 3e
       -0.18021986 -0.07337301 0.14300482 0.2557001
000120 94 45 02 3f 65 09 aa 3a 89 c7 1d be 22 b5 eb 3e
       0.5088742 0.001297277 -0.15408148 0.4603663
000130 95 f0 48 be 4d 19 9e bf 8e 24 19 3f d0 27 be be
       -0.19623025 -1.2351471 0.59821403 -0.3713975

conv1.lin.bias f4 [16]
000000 f2 3c 8c 3c 8c 93 e1 3c 88 30 c9 be 9c dd 02 be
       0.017118905 0.027536176 -0.3929484 -0.1277985
000010 73 41 bd be a7 6e b5 be 4f d1 4b be e2 95 cd bd
       -0.36963996 -0.35435984 -0.19904064 -0.100383535
000020 92 3b 05 3a 4c 27 a3 be d3 51 55 bd 27 23 10 3c
       0.0005082424 -0.3186592 -0.052079987 0.0087974435
000030 d2 ee 15 3d 87 f4 99 be 19 86 96 bd a1 01 a8 be
       0.03660471 -0.30069372 -0.07349796 -0.32813743

fc.weight f4 [4, 16]
000000 3e 45 c4 3e db 53 87 3d e0 72 55 be 56 01 a6 3e
       0.38334078 0.06607791 -0.20844603 0.32422894
000010 95 87 39 be db d7 a7 3d 90 d7 b7 3e d8 05 40 3c
       -0.18118127 0.08195468 0.3590665 0.011720143
000020 e5 d3 d9 bd 72 06 74 3e df 50 48 be 7e b9 51 be
       -0.10636119 0.23830584 -0.195621 -0.20480916
000030 4e a5 47 bf 58 23 9d bb af e0 a7 3d 39 32 a4 bd
       -0.7798661 -0.004795473 0.08197152 -0.08017392
000040 7e 9d 19 be eb 5e f8 3c 14 06 92 3e ae ad c5 bd
       -0.15001485 0.030318698 0.28520262 -0.096522674
000050 9b e8 14 ba 01 ea f2 bd 7d e6 33 be e9 c8 99 bc
       -0.0005680413 -0.11861039 -0.17568393 -0.01877256
000060 e7 01 0b 3d 1b 6c f6 bf 5a 47 19 3e d4 6e dd 3d
       0.03393736 -1.9251741 0.14968625 0.108121544
000070 45 94 63 3f 90 9f 10 be 87 d6 92 3d ca aa 53 3f
       0.88898116 -0.14123368 0.07169824 0.8268248
000080 c3 02 c8 be 9b 52 94 3d 9f 53 a4 3d 97 c6 49 bf
       -0.39064607 0.07242318 0.08023762 -0.7881865
000090 99 81 3a 3c 53 52 58 3e fc aa 1c bf 5a 02 85 3e
       0.011383438 0.21125154 -0.611984 0.25978357
0000a0 c3 d0 54 3e d2 27 be 3e 16 f2 90 be 90 e2 cc 3e
       0.20782761 0.37139755 -0.28309697 0.40016603
0000b0 30 89 d6 3e 27 f0 1a be 3b e4 a5 3d 37 ea a1 3e
       0.4190154 -0.15130673 0.08100172 0.31624004
0000c0 7b ac a1 bc 4b 07 27 bd 98 39 65 be 26 40 d0 3e
       -0.019735565 -0.04077844 -0.22385252 0.4067394
0000d0 79 bc c6 bc 2b f0 9e 3d fc 2c 85 3e e2 0c da 3d
       -0.024259793 0.07760652 0.26010883 0.106469885
0000e0 10 39 64 3e 46 82 28 3f 52 0d 36 3d 82 e0 d0 3e
       0.22287393 0.6582378 0.044446297 0.40796286
0000f0 12 a3 22 bf b2 b8 86 3e b7 e7 ae 3d 36 be 71 be
       -0.63530076 0.26312786 0.0854029 -0.23607716

fc.bias f4 [4]
000000 47 69 a8 3e 65 7f a3 3d 49 f9 34 3e 5f 90 48 bf
       0.3289282 0.07983283 0.1767322 -0.7834529
