brain_region_division/Automatically-learned-division/RGNN_Leiden/emotion_model - 副本/RGNN_9.pt (torch, 10267 bytes, 5 tensors)

edge_weight f4 [1953]
1.9332383 0.21587268 1.6652173 0.01670418 1.2339313 2.7663078 0.6776606 0.028980987
0.66129 1.2220151 0.21499081 0.40704677 1.7171329 -0.051620163 2.129122 -0.029609568
1.2687451 1.5662031 0.027601382 0.5231553 3.011933 0.37908122 0.15146792 0.7798513
0.06489387 0.062020145 0.18354474 1.5464408 0.4281862 0.11892764 0.78429097 0.02377589
0.063880086 0.09396061 0.21446817 1.4800923 0.40953776 0.23631431 0.5126026 0.15155886
0.011349331 0.009661908 0.14300579 0.16385634 0.8775505 -0.19511934 0.024496013 -0.0014408865
-0.35042855 -0.004049727 -0.00032586648 -0.14500447 -0.18970641 -0.18496916 0.7012566 -0.39347658
-0.23978297 -0.23475139 -0.33880976 -0.09054217 0.0062805857 -0.2842752 -0.25637594 -0.58337194
0.0197067 0.6834398 0.031392243 0.3013526 0.17860731 0.005200976 0.078248575 0.3881558
0.124887355 0.19868036 0.011025844 -0.43904552 0.011992815 1.1071366 0.0602688 0.32072112
0.18678972 0.0058693383 0.11018594 0.41419867 0.13068514 0.20584619 0.010446103 -0.39690986
0.0056773433 0.25340453 1.1380851 0.09974689 0.39407095 0.29098555 0.024574313 0.21299711
0.44726464 0.20260967 0.25760332 0.010426723 -0.28627953 0.005022249 0.21938948 0.22769907
1.0643015 -0.89061403 -0.0007707953 -0.29214114 -0.5737536 -0.12253224 0.0012767185 -0.094505385
-0.103033826 -0.36883795 0.13681468 0.2039415 0.00464995 -0.005518063 -0.0112258475 2.2307868
1.3903375 1.7472388 1.6754086 1.4160756 1.7318674 0.6765979 1.4065706 1.4291466
1.2814417 -0.0019166087 -0.28879982 0.7063523 0.74865687 0.72497785 -0.52255917 2.594947
0.87630516 0.022957703 0.0021530653 0.18211739 -0.05430823 0.019313172 0.05855742 0.032308795
0.26373124 -0.21607311 -0.42908376 0.014028521 0.028323594 0.015930835 -0.37795785 0.7254491
1.5324683 -0.03737226 -0.65915316 -0.59321296 -0.06461475 -0.43835592 -0.70250624 -0.6117968
-0.5787091 0.021031246 0.14737953 0.024637427 -0.7539247 -0.71292627 -0.79540217 0.00816051
-0.41987813 0.018784793 1.6168135 -0.2713217 -0.54962665 -0.4098179 -0.20549834 -0.26747158
-0.37920013 -0.46691436 -0.44270918 -0.18934378 0.15943967 0.0958001 -0.17468444 -0.18678284
-0.21563388 0.002453526 -0.27401203 -0.21660668 0.65301573 1.1023865 -0.21299994 -0.5028782
-0.32678822 -0.18843046 -0.19274336 -0.27470598 -0.4952766 -0.4274762 -0.25512394 0.11589349
0.12254391 -0.054416485 -0.06532954 -0.12510963 0.0046068514 -0.3375513 -0.2716939 0.26936066
0.23730303 0.9263876 -0.25700504 -0.47474593 -0.31374776 -0.1819402 -0.10644541 -0.12913895
-0.46570715 -0.38559982 -0.3559187 0.11583043 0.13508412 -0.001239377 -0.0031940017 -0.0071721543
0.0043110023 -0.40699553 -0.42083335 0.24771151 0.18551032 0.2556988 1.2509501 0.4670159
0.03010796 0.037248068 0.3459927 0.018591179 0.007232953 0.13786902 0.20807213 0.017011095
-0.5383444 -0.034726385 0.25691995 0.31952193 0.29628396 -0.36854628 0.54468167 0.15993558
-0.7526518 -0.18687972 -0.003187142 -0.0016378085 1.1983651 0.5568333 0.13213223 0.27064934
00000000: 5a74 f73f ba0d 5d3e d725 d53f 34d7 883c
00000010: 76f1 9d3f 300b 3140 2a7b 2d3f 8969 ed3c
00000020: 4d4a 293f fe6a 9c3f 8d26 5c3e 6f68 d03e
00000030: 03cb db3f aa6f 53bd 8943 0840 c48f f2bc
00000040: 3d66 a23f 5879 c83f 4b1c e23c 81ed 053f
00000050: 83c3 4040 ef16 c23e 681a 1b3e 56a4 473f
00000060: 14e7 843d d608 7e3d 27f3 3b3e c6f1 c53f
00000070: 393b db3e 5690 f33d 4bc7 483f a8c5 c23c
00000080: 90d3 823d 6c6e c03d 8b9d 5b3e aa73 bd3f
00000090: efae d13e 61fc 713e ed39 033f 3f32 1b3e
000000a0: 8bf2 393c fb4c 1e3c 1c70 123e f5c9 273e
000000b0: 26a7 603f 5dcd 47be ddab c83c 21dc bcba
000000c0: 5f6b b3be 93b3 84bb 0fd9 aab9 0d7c 14be
000000d0: 6642 42be 8e68 3dbe 8d85 333f c375 c9be
000000e0: ab89 75be ab62 70be 7978 adbe 2c6e b9bd
000000f0: 5fcd cd3b 858c 91be b543 83be dd57 15bf
00000100: f26f a13c e9f5 2e3f 2795 003d e34a 9a3e
00000110: d6e4 363e f36c aa3b ca40 a03d 5bbc c63e
00000120: f1c4 ff3d dd72 4b3e bea5 343c 93ca e0be
00000130: 837d 443c a7b6 8d3f 6bdc 763d 8f35 a43e
00000140: ce45 3f3e 9453 c03b 2ba9 e13d d911 d43e
00000150: 53d2 053e 58c9 523e 2226 2b3c c537 cbbe
00000160: 0209 ba3b 3dbe 813e c6ac 913f 1948 cc3d
00000170: abc3 c93e 0ffc 943e 1250 c93c ea1b 5a3e
00000180: dfff e43e e978 4f3e 95e4 833e d9d4 2a3c
00000190: 3b93 92be ae91 a43b a3a7 603e f229 693e
000001a0: 083b 883f 48ff 63bf 320f 4aba 8693 95be
000001b0: 84e1 12bf 2ff2 fabd 9057 a73a 0a8c c1bd
000001c0: 6603 d3bd 54d8 bcbe 2619 0c3e 0ad6 503e
000001d0: 9c5e 983b ded0 b4bb 9eec 37bc 36c5 0e40
000001e0: 94f6 b13f 85a5 df3f ca73 d63f f741 b53f
000001f0: d5ad dd3f 8535 2d3f 810a b43f 47ee b63f
00000200: 4806 a43f b736 fbba 92dd 93be 81d3 343f
00000210: faa7 3f3f 2698 393f 70c6 05bf 9d13 2640
00000220: 8955 603f cb11 bc3c 711a 0d3b fb7c 3a3e
00000230: 4e72 5ebd a836 9e3c e8d9 6f3d 3a56 043d
00000240: c807 873e 4542 5dbe deb0 dbbe e2d7 653c
00000250: e206 e83c 6281 823c b183 c1be 08b7 393f
00000260: ec27 c43f a813 19bd 43be 28bf cedc 17bf
00000270: bd54 84bd 3070 e0be 73d7 33bf b79e 1cbf
00000280: 4826 14bf b849 ac3c a9ea 163e 6ed4 c93c
00000290: 3601 41bf 5682 36bf 7a9f 4bbf a9b3 053c
000002a0: 44fa d6be 91e2 993c bff3 ce3f aeea 8abe
000002b0: 55b4 0cbf a7d3 d1be 286e 52be 09f2 88be
000002c0: 8526 c2be 660f efbe c7aa e2be 56e3 41be
000002d0: 2744 233e d832 c43d 7ae0 32be 0044 3fbe
000002e0: 21cf 5cbe 56cb 203b 4e4b 8cbe 24ce 5dbe
000002f0: 0a2c 273f 001b 8d3f a81c 5abe a0bc 00bf
00000300: c950 a7be eaf3 40be 845e 45be 43a6 8cbe
00000310: e594 fdbe 29de dabe 9b9f 82be 9159 ed3d
00000320: 4df8 fa3d d2e3 5ebd 7ecb 85bd bd1c 00be
00000330: 12f5 963b 86d3 acbe 761b 8bbe a4e9 893e
00000340: 91ff 723e bd27 6d3f 2a96 83be e611 f3be
00000350: 8ca3 a0be 884e 3abe 0d00 dabd 003d 04be
00000360: 2b71 eebe 576d c5be fa3a b6be 8138 ed3d
00000370: 7e53 0a3e 9772 a2ba 7552 51bb 6404 ebbb
00000380: 4f43 8d3b b861 d0be 7877 d7be 16a8 7d3e
00000390: 6bf6 3d3e f4ea 823e 221f a03f b51c ef3e
000003a0: f8a4 f63c 6e91 183d f525 b13e 874c 983c
000003b0: 6802 ed3b 892d 0d3e dc10 553e da5a 8b3c
000003c0: f0d0 09bf 413d 0ebd 038b 833e 6198 a33e
000003d0: 88b2 973e 19b2 bcbe 4270 0b3f 27c6 233e
000003e0: caad 40bf 665d 3fbe 5fdf 50bb bcab d6ba
000003f0: 0764 993f a18c 0e3f ac4d 073e 8d92 8a3e

conv1.lin.weight f4 [16, 5]
0.10382187 -0.025466908 -0.4262418 0.012855866 0.40247577 -0.697513 -0.80896443 -0.12074492
-0.049368665 0.535073 -0.60402334 -0.97854245 0.26866055 -0.4913344 0.80941725 0.039302528
-0.3000141 -0.03520283 -0.10086542 0.29041982 -0.08120758 -1.20141 0.44111046 0.07571422
0.21847749 -0.92790204 0.31416914 0.41059497 1.3446739 1.0442927 -0.5510066 -0.1154391
-1.1176449 0.7067913 0.7042638 -0.21833012 0.33642378 -0.39208087 -0.47072905 0.23855516
-1.1683818 0.3621722 0.5664892 1.82405 1.2966065 -0.6804886 -0.030226694 0.21863061
1.0627013 1.5013016 -0.16671097 0.673181 1.2486142 -0.31448695 -0.9210906 -0.61452633
0.6124387 0.5294683 0.6275815 0.3546934 0.3248308 -0.19987422 -1.9531074 1.0920496
1.0177596 -0.2848898 0.21505384 0.3500449 -0.7912936 -0.9468215 -0.21602774 -0.09639906
0.1428735 0.16826378 0.007200349 0.069903426 -1.3515164 -0.25737366 -0.1409846 0.9944512
00000000: 90a0 d43d fa9f d0bc 5d3c dabe 69a1 523c
00000010: 4e11 ce3e 3690 32bf 4b18 4fbf 1d49 f7bd
00000020: cc36 4abd 8bfa 083f 46a1 1abf c281 7abf
00000030: e08d 893e 2f90 fbbe f835 4f3f b0fb 203d
00000040: 739b 99be d830 10bd 8892 cebd e8b1 943e
00000050: 2950 a6bd cec7 99bf 3bd9 e13e 0f10 9b3d
00000060: 90b8 5f3e fd8a 6dbf c7da a03e 8139 d23e
00000070: 461e ac3f 62ab 853f c50e 0dbf 566b ecbd
00000080: fd0e 8fbf 46f0 343f a24a 343f ee91 5fbe
00000090: bd3f ac3e d3be c8be 6603 f1be ce47 743e
000000a0: 898d 95bf a26e b93e 7005 113f 787a e93f
000000b0: 34f7 a53f 8034 2ebf f99d f7bc b4e0 5f3e
000000c0: 9906 883f a72a c03f 48b6 2abe 9755 2c3f
000000d0: 97d2 9f3f 6f04 a1be 98cc 6bbf 9951 1dbf
000000e0: c8c8 1c3f 3c8b 073f 2ea9 203f 609a b53e
000000f0: 3950 a63e d4ab 4cbe 6cff f9bf 48c8 8b3f
00000100: f245 823f 13dd 91be 1337 5c3e 1639 b33e
00000110: 3892 4abf e562 72bf 6036 5dbe df6c c5bd
00000120: 6e4d 123e 574d 2c3e e8f0 eb3b 8729 8f3d
00000130: 7dfe acbf 7bc6 83be 445e 10be 5b94 7e3f

conv1.lin.bias f4 [16]
-0.14477839 -0.2275224 -0.21761547 -0.40021446 -0.11398331 -0.14698343 -0.06678954 -0.1160556
-0.19616622 -0.13440304 -0.1386224 -0.03974225 -0.02237924 -0.11906618 -0.17948918 -0.10783707
00000000: c940 14be a2fb 68be 97d6 5ebe e9e8 ccbe
00000010: 1570 e9bd d382 16be f4c8 88bd 8fae edbd
00000020: ccdf 48be f3a0 09be 08f3 0dbe c5c8 22bd
00000030: ab54 b7bc f8d8 f3bd 03cc 37be afd9 dcbd

fc.weight f4 [4, 16]
0.115713984 0.5491701 0.45869973 0.07069412 0.10190743 -2.1496549 0.15800095 -0.31040114
-1.7345352 -1.6044769 0.18233913 -0.52619874 0.21738468 0.03850579 -0.03307151 0.12315532
0.04482939 0.46944505 0.64612216 -0.2231268 0.43470803 0.56831753 0.2813459 0.3156585
0.3708621 -0.17355457 0.54331857 0.26467037 -2.2142506 -0.29823786 -0.10528412 0.7006392
-0.10742467 -0.5112845 -0.6055189 0.053690493 -0.550193 1.6225357 0.14011647 0.28884315
1.084455 0.66183287 0.42416263 0.14850971 -0.047480043 -0.18071301 -0.14350252 -0.100269616
-0.05071018 -1.0089338 -0.89928037 -0.03181663 -0.10273521 -0.22150512 -0.56462044 0.036328614
-0.38084266 0.45569572 -1.1449243 0.26668152 0.6750568 0.2306682 0.24990636 -0.2989835
00000000: 74fb ec3d 6996 0c3f b1da ea3e 14c8 903d
00000010: d8b4 d03d f293 09c0 00cb 213e e6ec 9ebe
00000020: 4005 debf 805f cdbf 1cb7 3a3e f6b4 06bf
00000030: 179a 5e3e 3fb8 1d3d fe75 07bd db38 fc3d
00000040: 069f 373d 1a5b f03e 4368 253f 5a7b 64be
00000050: 0d92 de3e 427d 113f 920c 903e fe9d a13e
00000060: a3e1 bd3e 4ab8 31be ed16 0b3f e082 873e
00000070: 48b6 0dc0 a2b2 98be 339f d7bd 175d 333f
00000080: 7701 dcbd 8ae3 02bf 4903 1bbf 90ea 5b3d
00000090: 73d9 0cbf 40af cf3f b17a 0f3e 40e3 933e
000000a0: 6ccf 8a3f e16d 293f d82b d93e ee12 183e
000000b0: 6f7a 42bd d50c 39be 53f2 12be 285a cdbd
000000c0: 7ab5 4fbd be24 81bf 3d37 66bf 2852 02bd
000000d0: d666 d2bd 3dd2 62be f78a 10bf 50cd 143d
000000e0: cffd c2be f350 e93e e18c 92bf 7b8a 883e
000000f0: 86d0 2c3f 4934 6c3e 74e7 7f3e 5e14 99be

fc.bias f4 [4]
0.778106 -0.7527397 -0.32411012 0.306553
00000000: f431 473f 8db3 40bf c3f1 a5be 84f4 9c3e
