brain_region_division/Automatically-learned-division/RGNN_Leiden/emotion_model - 副本/RGNN_13.pt (torch, 10267 bytes, 5 tensors)

edge_weight f4 [1953]
00000000: 78ed 923f c262 0c3e 1613 973f 654e 983c
00000010: 74d7 d93c 4359 303f 972c 823c e28e 663c
00000020: 8f2e 433d 1328 903f 4f48 813c 2cba c93c
00000030: 69cc 683c 51dc 903d 56c6 8a3f c365 b33c
00000040: fbe4 c73c f27c 153c be0f 753e 3fd0 0b3d
00000050: 39ce 9a3f d3c9 bc3c 6553 b03c 3e9f 0f3c
00000060: 7a56 803e 305b 043d 7be9 143e 4f12 963f
00000070: 0d43 063d 7f6c c73c a35d 923c dfe8 2f3e
00000080: f466 8a3c e510 743d 5e49 7b3e cb6a 973f
00000090: 3ffd b23d 4020 9c3d 4dbb 933d 0309 883e
000000a0: 4d24 363e 917d 473d 6c3d 1b3e aff0 613e
000000b0: 6ae7 a23f 012a 9e3d de55 c43d 187c 833d
000000c0: be26 163e 0b29 423e ea48 2e3d a408 3e3d
000000d0: 7a48 d53d fa43 8a3e 7475 9b3f e0ba 753d
000000e0: 01a1 8f3d 4121 8b3d 092c f83d 0321 753e
000000f0: 879f 553d f03d 183d 39c0 913d ad4a 3e3e
00000100: 9818 7a3e 2ec3 983f c481 023d bc54 97bb
00000110: 800c 383e af53 b7bb 1759 093d ed31 11bc
00000120: 5029 773a 9b50 babb 47f7 f53b 7dce 893c
00000130: 0906 d93c f542 9c3f 75a3 ac3c 9f1a 6abc
00000140: acb5 1a3e a61c 973b 2d6b 173e a723 e03b
00000150: 75a8 153c 1ce3 973b 5199 5bbb a390 243b
00000160: 98d2 833d 5dbe 393e ef87 843f 651a a43b
00000170: 69a3 53bb 5eaa 843b 9793 003d cf06 dd3c
00000180: 0b6d cb3d c10e 3c3d dcc2 df3b db7d 913b
00000190: 81f0 103c 2454 c53b 054c 23bc 3ab1 8e3c
000001a0: b755 c23f 0a38 f83b 06a1 cb3c 5b8b 6c3c
000001b0: 3889 c33d 0e38 1d3d a972 a73e 774c 203d
000001c0: 78c0 c63c 5dfa 033d c1bc e63c 2c4f 2f3d
000001d0: b2c5 373b 4f44 0e3c 6c2c 413e bc80 b33f
000001e0: bd72 e73b 5c59 913c 4cc8 c03b 85fc 0f3e
000001f0: 7734 e13c c862 913e 8abc cb3d aaa5 c23c
00000200: a3b1 e33d 7295 053d 10c4 3c3d 2954 2bbc
00000210: 6516 333b 8c73 f03d 9657 be3e c06c 903f
00000220: 9c32 eb3c bb25 cf3a 83eb b53c e7ba a0bc
00000230: 8b25 00bd 1e46 a5bc 7ea9 f2bc d05a 9cbc
00000240: 3837 14bc 7d73 88bc 6013 f0bb 9a0f b53b
00000250: ad5f 4cbc c836 94bc 9a9b 1fbc d48b efbc
00000260: 9f8c 683f 7010 133e a1f8 fb3d ab84 0b3e
00000270: 3a1f 5b3d 0285 303d 9ffc 4e3d 7603 e23d
00000280: 4c86 d33d 1042 a23e 287b 9b3e 3e5a 3d3e
00000290: 4ec4 45ba dd47 51bc b959 bd3b 0d54 083d
000002a0: 1b99 c33d 2388 c03a dba5 9a3f c216 f23d
000002b0: ac2c 143e 8334 cf3d fa71 913d e9e2 403d
000002c0: dff7 ae3d e5e1 663d 02ee cd3d bd57 623e
000002d0: 88d3 ae3e 3da0 433e 6ffc f0bb 9bff e6bb
000002e0: 36c4 323c 15d5 b13d 9aab 7a3d 9f4f 32bc
000002f0: 63dd 7b3e 882c b23f a9a3 283d 0279 393b
00000300: 8df0 d83d a5f3 a7bc 62ce 733c ac5a c43c
00000310: fe5f c83b 8b0d 0ebd a3bb a53c f88c 1f3d
00000320: a9d0 d83c 3796 143e ae66 333e 1fe9 913b
00000330: 908b 8e3c 6a98 d13c fe51 a3bd 15dc 743c
00000340: fe38 08bc aba6 7f3f 6529 95bd cdd2 87bd
00000350: a651 c23a 7253 88bd 887d 1cbd 77ec 70bb
00000360: d229 0fbd eeeb 86bd 44c8 60bd 1fc9 d5bd
00000370: cca5 75bd a68b 8f3d f587 883d ef1b 9abc
00000380: 4b77 e9bb 6972 82b8 cdc5 f43c e38a 5cbd
00000390: 8341 4abd 6693 053e 24cf 913f 056a 57bd
000003a0: 1672 8bbd 3545 5abc 7e24 c43b 2497 023c
000003b0: 1dc6 8e3c 0050 013c a4a0 98bc b5f2 0ebb
000003c0: 5e03 1abc 0d91 5c3c ac26 adbb ea87 6c3d
000003d0: 1faa 713e c6cd d33c 391d 823c d6d9 59bd
000003e0: 1dd2 8e3b 7ef2 d73b 43b2 b03c 552f 00bc
000003f0: 21b2 b13f 6694 eebb 411b be3b c33c 20bd
1.147872 0.13709548 1.18027 0.018592069 0.026591994 0.688862 0.015890403 0.014072152
0.047651824 1.126223 0.01578155 0.024624906 0.014208891 0.07073272 1.0841777 0.02189911
0.024401179 0.009124028 0.23931786 0.034134146 1.2094184 0.023045456 0.02152414 0.008765994
0.25065976 0.032313526 0.1454219 1.1724337 0.03277879 0.024343727 0.017866915 0.17178677
0.016894795 0.059586424 0.24539706 1.1829466 0.08739709 0.07623339 0.07213459 0.26569375
0.17787285 0.048703734 0.1516015 0.2206447 1.2726872 0.07722855 0.0958669 0.064201534
0.14663216 0.18960969 0.042550005 0.04639496 0.104142144 0.27004987 1.2145219 0.05999267
0.07013131 0.06793452 0.12117774 0.23938374 0.05215409 0.037168443 0.07116742 0.18583174
0.24423444 1.1934564 0.031862035 -0.0046182554 0.17973518 -0.0055946927 0.03353223 -0.008862001
0.0009428458 -0.0056858785 0.0075062844 0.016822094 0.026492136 1.2207934 0.021074036 -0.0142885735
0.15108365 0.0046115695 0.14786978 0.0068401876 0.009134402 0.004635228 -0.0033508132 0.0025110624
0.06436652 0.18139024 1.0353984 0.0050080293 -0.0032293445 0.0040486297 0.031390753 0.026980786
0.09932908 0.045912508 0.006828649 0.004440052 0.008846403 0.0060219932 -0.009966855 0.017418493
1.5182408 0.0075750398 0.024857055 0.014437522 0.09547657 0.038383536 0.32704666 0.039135423
0.024261698 0.032221187 0.028166177 0.042800114 0.002804142 0.008683278 0.18864602 1.4023662
0.0070632384 0.017742805 0.0058832522 0.14061172 0.027490837 0.28395677 0.0994807 0.023760635
0.11117866 0.032613225 0.046085417 -0.010457077 0.002732658 0.11740789 0.37176198 1.1283188
0.028710656 0.0015804091 0.022207027 -0.019620372 -0.031285804 -0.020175036 -0.029621836 -0.019086272
-0.009046368 -0.016656632 -0.0073265284 0.0055255415 -0.012473983 -0.018092528 -0.009741688 -0.02924148
0.9083957 0.14361739 0.123032816 0.13624828 0.053496577 0.043095596 0.050533887 0.11035816
0.103283495 0.31691027 0.30367398 0.18491456 -0.00075442053 -0.012773481 0.005778518 0.033283282
0.09550687 0.0014689009 1.2081865 0.11820747 0.14470166 0.10117438 0.071018174 0.0470914
0.085433714 0.056367774 0.10055162 0.22103782 0.3414576 0.19104095 -0.007354311 -0.0070495135
0.010911038 0.0868322 0.06119881 -0.010883241 0.24596171 1.391984 0.041171703 0.0028300886
0.105927564 -0.020501921 0.014880748 0.023969017 0.006114959 -0.034680884 0.020231074 0.038952798
0.026466684 0.14510427 0.17519638 0.004452839 0.017400533 0.025585372 -0.07974623 0.01494505
-0.008314369 0.9986369 -0.07283286 -0.06632004 0.0014825359 -0.06656541 -0.038205653 -0.0036762038
-0.034951992 -0.06587969 -0.05487849 -0.104387514 -0.05997257 0.07009058 0.06666557 -0.018812148
-0.0071248165 -6.2201936e-05 0.029879475 -0.05384339 -0.049378883 0.1304451 1.1391339 -0.052591342
-0.068088695 -0.013322164 0.0059857955 0.007970605 0.017428452 0.007892609 -0.018631287 -0.0021812145
-0.009400217 0.013462317 -0.005284151 0.057746805 0.23600052 0.025854956 0.015883075 -0.05318626
0.0043585435 0.0065901866 0.021569377 -0.007823785 1.3882486 -0.007280874 0.0058015888 -0.039120447

conv1.lin.weight f4 [16, 5]
00000000: 3417 c6bd 6338 d6be 3e36 5f3e 357e 30be
00000010: 9009 9dbd ea8f c6be a5b8 8ebf cd53 6c3f
00000020: a074 5f3d 38bd 6c3e a26b cd3d 0bb8 143e
00000030: e57a 18bf fc7c 103d 930e 453e 313a 1dbe
00000040: 0d2a 62be 03c3 e93e 3ba1 823d eb7b 07be
00000050: eabc 483d 8cf8 2dbe 6bda c8bf c259 14be
00000060: 59c2 8b3f abb4 00be 2c9c 403f 249f 4a3e
00000070: 655b 8b3f de4e 0dbf 5eb2 bb3e a377 c0be
00000080: 9df1 c23e 3d1d a4be e541 803e 106d 42be
00000090: 199b 20be 2946 8c3e 65f7 e13e 3b8a 46be
000000a0: 837f 9f3e 4dd1 823e daf2 8ebd 3f84 7e3e
000000b0: 7ff2 d33e 3b36 4dbe 87b3 583f a52b 11bd
000000c0: e39f 933f cb33 10bf f649 83bc fa3a e9bd
000000d0: e40c 09bd e85a 9ebe 6241 fb3d 7719 963e
000000e0: 8f10 4e3e 96f0 0a3e 171d 1e3e de6d 0b3d
000000f0: f889 8dbe 4dd5 15be 0010 953f 8f34 77be
00000100: cd8f 8b3e 97d6 fbbe 789c 61be c2b7 b2be
00000110: f586 043f 194d 803e 6a73 9e3e 5245 673d
00000120: 158e 823e f827 9c3c 5eb8 633e 90c8 8b3e
00000130: 6ac6 243e 2d9e 1f3f e708 443e 8d8b 87be
-0.096723944 -0.41839895 0.21798036 -0.17235644 -0.076678395 -0.38781673 -1.1150099 0.9231537
0.05455458 0.23119056 0.10030295 0.14523332 -0.5956252 0.035275444 0.19243841 -0.1535423
-0.22086354 0.45656595 0.063784085 -0.13230865 0.049008287 -0.16989344 -1.5691656 -0.14487365
1.0918685 -0.1256892 0.752383 0.1978727 1.0887266 -0.55198467 0.3665952 -0.37591276
0.3807496 -0.32053557 0.25050274 -0.18986917 -0.15684165 0.27397278 0.4413406 -0.19388668
0.3115197 0.2555031 -0.06979914 0.24855135 0.41395947 -0.20040219 0.84648937 -0.035442013
1.1533169 -0.5632903 -0.016026478 -0.11388202 -0.03345956 -0.3092873 0.1226833 0.29316303
0.20123504 0.13568339 0.15440784 0.034040324 -0.27644324 -0.14632149 1.1645508 -0.24141143
0.2725815 -0.49187157 -0.22032344 -0.3490582 0.5176843 0.2505882 0.3094743 0.056462593
0.25499025 0.019062027 0.22238299 0.27301455 0.16091314 0.6235073 0.19144021 -0.26473656

conv1.lin.bias f4 [16]
00000000: 71ee b5be 1099 e83d d79c 8abc 3cd1 a6be
00000010: 0ec2 a23d 5cea 93bd cf87 59be 5ef8 5a3d
00000020: 12a7 31be 1b8b 84bd 47d3 58be abfc b2be
00000030: 8323 ec3d 0630 e23d 5718 29be 4c9c 53be
-0.3553348 0.11357319 -0.01692049 -0.32581508 0.07947169 -0.07222435 -0.21243213 0.053459518
-0.17348889 -0.06471845 -0.21174346 -0.34958395 0.11530211 0.11044316 -0.16513191 -0.20665091

fc.weight f4 [4, 16]
00000000: 5ecd 063d 170c 57bd 8bb7 153b b112 553e
00000010: ab0e 6abd b5de 10bf 49bb 4abe 5f13 c1bd
00000020: a2c9 85be d5f8 3ebf 88e9 183e c237 1e3e
00000030: c3d6 1f3e c46c 5abb 89d5 bcbd fa4b ed3d
00000040: fd0f 1bbe 0b55 983c 98ea b9bd 4084 333e
00000050: 87dc aebe 2df9 933e 5e36 61bd 1b0e fcbc
00000060: e6c2 1bbd 93ca 533e 6f9e 06be 0c80 8bbe
00000070: 68cd 0c3e e3e5 3ebe f040 ab3d b9d1 883e
00000080: 19ff 933c 33df 5cbe 6472 5abd 0d2b 923e
00000090: 3de8 883d 3cd6 163f 817b e03d a683 02be
000000a0: 4ab7 503e d9c6 843f 39a5 683c 1cbf 39be
000000b0: 5345 efbc 1160 3bbe ce55 f23d 91c3 13be
000000c0: 3f2d 893e 7437 bdbe a819 0b3e b571 0ebe
000000d0: 2eca e63e ebed 50bf f1e1 81bc 26db 40bd
000000e0: a6f2 ac3e 5e54 54bf 4cfb 333e 5803 b2bd
000000f0: 2069 813d 0c10 4b3d 725a 253e 8691 d6bd
0.032910697 -0.052501764 0.0022844996 0.20807911 -0.057142895 -0.56589824 -0.19798006 -0.09427523
-0.26130396 -0.7459844 0.14932835 0.15450957 0.15609269 -0.003332899 -0.09220416 0.11586757
-0.15142818 0.01859524 -0.09077948 0.17530918 -0.34152624 0.28901044 -0.05498349 -0.030768445
-0.038027667 0.20682745 -0.13146375 -0.2724613 0.13750231 -0.18642382 0.08361995 0.26722506
0.018065976 -0.21569519 -0.053331748 0.2854847 0.06684921 0.58920646 0.109610565 -0.12745532
0.20382419 1.0373183 0.014199548 -0.18139309 -0.029207861 -0.18298365 0.11832772 -0.14430071
0.26792333 -0.3695637 0.13584006 -0.13910563 0.45076126 -0.81613034 -0.015854808 -0.047083996
0.33778876 -0.82941234 0.17576331 -0.08692044 0.06318879 0.04957585 0.16147783 -0.10476975

fc.bias f4 [4]
00000000: e014 133f fecc 94be e25d a3be b1a4 e33d
0.5745373 -0.29062647 -0.31907564 0.11115397
