brain_region_division/Automatically-learned-division/RGNN_Leiden/emotion_model - 副本/RGNN_3.pt (torch, 10267 bytes, 5 tensors)

edge_weight f4 [1953]
000000 ad 67 b9 3f ce 3c e6 3e 40 3b c3 3f a2 d8 80 bd
       1.4484764 0.44968265 1.5252457 -0.062913194
000010 34 ba 6d be 29 3f b9 3f 6f 7c be 3e 77 db a2 3e
       -0.23215562 1.44724 0.3720431 0.31808063
000020 29 4b 05 bd ae e3 87 3f 5d 59 18 be bf 30 d7 bc
       -0.03254238 1.0616357 -0.1487784 -0.026268361
000030 6a 03 46 3b 1a 1b 9e be 7b 23 ec 3f 02 01 85 bc
       0.0030214437 -0.30880052 1.8448328 -0.016235832
000040 4a fd d7 bc 7b 32 79 be 08 d0 85 bd 1c 87 57 bc
       -0.026365895 -0.24335663 -0.065338194 -0.013154771
000050 e1 82 9e 3f 76 df 1d be db 44 24 bd 19 97 92 3c
       1.2383691 -0.15417275 -0.04010473 0.017894315
000060 95 a1 29 be 21 8f a1 3e 09 c5 c3 3c dd 24 64 3f
       -0.16565545 0.3155451 0.023897665 0.8911875
000070 30 fc 86 be fe 1c 85 bd cf 94 0b 3c 3c 18 8d be
       -0.2636428 -0.064996704 0.008519365 -0.27557552
000080 af 23 76 3e 66 ba 87 3c f4 84 b1 3e 04 a6 b3 3f
       0.2403705 0.016568374 0.34671748 1.4035039
000090 68 ea e5 3d 25 2c b7 3d a7 5f 40 bd 32 b1 2e 3e
       0.1122635 0.08943967 -0.04696622 0.17059782
0000a0 8e d6 34 bd eb 23 78 3d 1b dd 64 3a af 7a c6 bd
       -0.044149928 0.06058113 0.0008730457 -0.09691369
0000b0 af ca db 3f a9 2f 6e 3f db 3e 6e 3f 04 fe 3b be
       1.7171229 0.93041474 0.9306466 -0.18358618
0000c0 1d c7 ee 3e cf e3 b6 bc 06 03 ac bc 4d a8 01 bd
       0.46636286 -0.022325424 -0.020997535 -0.031654645
0000d0 68 2f 98 bd 0c 48 9a 3d b9 05 08 40 5c 5d 0d 3d
       -0.07430917 0.07533273 2.1253493 0.034512863
0000e0 23 11 45 3e 0f 3c 41 3b fc f8 ef ba 01 d3 4d 3e
       0.19244818 0.002948526 -0.0018308456 0.20100023
0000f0 d5 3b 1f bb 16 dc f3 3b 97 e6 fe b9 b1 d9 60 3a
       -0.0024297137 0.007442008 -0.00048618458 0.00085773604
000100 31 4f 30 ba ea 26 08 40 71 e9 eb bc 23 94 13 be
       -0.00067256676 2.1273751 -0.028797837 -0.14411978
000110 1a e7 d5 3e 8d 78 13 bd 73 62 3f 3a 2e a3 be be
       0.4177788 -0.036003638 0.0007300742 -0.3723387
000120 88 c9 45 be 5a c8 cd bc 3e a6 87 bd cc 50 04 be
       -0.1931516 -0.02511995 -0.06623505 -0.12921447
000130 ab 62 6f bd 72 46 e8 3f 9a ea ab bc 3a aa de bd
       -0.058443706 1.8146498 -0.02098589 -0.10872312
000140 39 64 e9 3e d5 46 87 bd 9f ce 64 bc 21 ae c2 be
       0.45584276 -0.06605307 -0.013965278 -0.38023475
000150 c9 cc 45 be 44 0e c7 3b 37 e5 9c bd 13 3a fe bd
       -0.193164 0.0060746986 -0.07660907 -0.124134205
000160 9c 80 82 bd 22 81 6e 3f 42 27 e9 3f a3 8b 0c 3f
       -0.063721865 0.9316579 1.8215106 0.5490057
000170 31 f0 02 3f 87 4a 15 bd 72 71 b9 3e 58 4e 1f bd
       0.51147753 -0.036448028 0.36219364 -0.038893074
000180 af 27 00 be 3b 94 15 be 45 bb 2f bc 71 76 a7 3e
       -0.12515138 -0.14607327 -0.010725801 0.3270755
000190 fd b6 32 3f c9 18 74 3c 3a f5 86 3c 92 6d 29 3c
       0.6981047 0.014898487 0.016474355 0.010341065
0001a0 0d d9 05 40 ee 41 7e bb 58 ba d0 bc c7 5c 44 3e
       2.0913727 -0.0038796621 -0.02547948 0.19176017
0001b0 11 5f a2 bc 0e 6c 02 be 39 d2 1d be a5 5b 5c bd
       -0.019820722 -0.12736532 -0.15412225 -0.053798337
0001c0 55 c5 1f 3c 1f f9 c7 3e d4 03 ad 3b 44 0a 8e bd
       0.0097516375 0.39057252 0.0052799974 -0.06935552
0001d0 4f a5 18 3e 73 c6 0a 3e 2d c0 1c 3d 40 17 fb 3f
       0.1490681 0.13552265 0.03826921 1.961647
0001e0 82 f0 85 bc d1 83 07 be 72 bd 08 3f 03 31 91 bc
       -0.016350035 -0.13233878 0.5341407 -0.017723566
0001f0 db d6 de bd d6 14 ac be 14 3c bf bd 65 4a c4 bd
       -0.10880824 -0.33609647 -0.09337631 -0.09584502
000200 ab 90 d1 bb e5 39 14 be 6d 68 ba bd 4c 0f 89 3f
       -0.0063954196 -0.1447521 -0.09101949 1.0707793
000210 af 91 8a 3f e8 e2 d3 3c 7f 7e 25 3e a3 8c f0 3f
       1.0825709 0.025865033 0.16161536 1.8792919
000220 75 22 3f be b9 90 59 be 1a 2d 2f 3f 8d 94 3e be
       -0.18665488 -0.21246614 0.68428195 -0.18611355
000230 47 60 4b 3b 0c 24 a6 bb 6d af e0 3c 3b 37 39 3d
       0.0031032728 -0.005070215 0.0274274 0.045218688
000240 31 4a 1f bc 74 5d 97 be a5 5e 2c bc 13 5f 15 3f
       -0.009722278 -0.29563487 -0.010520612 0.58348197
000250 68 42 17 3f c8 4d 6c 3a da 6e 5c 3d 8c 54 0e 3f
       0.590857 0.0009014276 0.053816654 0.5559776
000260 27 56 b6 3f 16 91 9f bc 87 07 a3 bc 39 3d 21 3e
       1.4245042 -0.019478362 -0.01990105 0.15746011
000270 a2 0b 00 bd 17 b8 42 b9 ff e9 1f bd 22 eb b9 3d
       -0.031261094 -0.0001856986 -0.039041515 0.09078051
000280 17 3b ec 3d 5b 09 d2 3b 7c c3 89 ba b8 f1 42 bd
       0.11534708 0.0064098067 -0.0010510529 -0.047593802
000290 45 f5 d0 3c 4e 34 76 3c a5 cc 02 3c 96 5d ac 3e
       0.025507579 0.015027119 0.007983361 0.3366515
0002a0 26 32 7d 3d a0 51 b4 3d d2 b0 aa 3f b2 34 54 3e
       0.061815403 0.08804631 1.3335211 0.20723227
0002b0 a2 11 3d 3e f7 24 8d bd eb 3b 9c 3d 88 2f 9c bc
       0.18463758 -0.06891816 0.07628616 -0.019065633
0002c0 de 22 94 3e 8e c3 1f be c6 f3 05 bd 3a 66 9c 3d
       0.28932852 -0.15601942 -0.032703184 0.07636686
0002d0 f6 1d 5d 3e b7 ca 0d 3c d6 e5 4f bd b3 f1 2b bd
       0.2159346 0.008654288 -0.050756298 -0.04197855
0002e0 53 e2 8e 3f 66 2c 19 bc 6f ea 64 bd 20 bc 2e bd
       1.1162819 -0.009348964 -0.055887636 -0.04265988
0002f0 89 8e a9 be 4c 97 93 3f 44 db fa 3e 05 a3 e6 3e
       -0.33116558 1.1530547 0.4899541 0.4504625
000300 d9 53 8d bd 7a cc b2 3e 3b 67 e3 bb ec e3 dd 3c
       -0.06900758 0.34921628 -0.0069397963 0.02708622
000310 f1 38 2d be 51 87 a5 bc 61 c9 e0 bc b9 31 9a 3e
       -0.16916253 -0.020206125 -0.027439775 0.3011606
000320 a7 8f 20 3d 1d 11 17 be 50 39 0e be 25 ed a8 3f
       0.039199498 -0.14752622 -0.1388905 1.3197371
000330 79 df 05 bd dc f1 e3 bd 98 db c7 bd 40 4c c1 be
       -0.032683823 -0.111301154 -0.09758681 -0.37753487
000340 34 43 35 3e 8d 8c b7 3f a3 4a 83 3d 16 57 1e 3e
       0.17701417 1.4339768 0.0641072 0.15462908
000350 84 92 9a bd 42 97 66 3c 29 d5 02 3d 44 1f 80 3e
       -0.07547477 0.014074149 0.031941567 0.25023854
000360 71 37 19 be fa 0c 8b 3d da d3 0b 3d 96 78 23 3e
       -0.14962555 0.067895845 0.034137584 0.15963969
000370 d3 c2 c3 bc 84 1a ac bd b5 84 8f bd 6a e9 9c 3f
       -0.02389661 -0.08403495 -0.07007734 1.2258732
000380 59 03 c8 bb 6b 74 6d bd 79 7c 4f bd 17 b9 94 be
       -0.0061039147 -0.057972353 -0.050655816 -0.29047462
000390 c7 d8 c3 3d ad f1 b7 3d d5 5f c0 3f f1 63 1b bf
       0.09562831 0.08981643 1.5029246 -0.60699373
0003a0 81 57 25 bf 2b 55 d6 3e 2b 37 fa be cb 03 04 3d
       -0.64586645 0.41861853 -0.48870215 0.03223018
0003b0 5c ce 2d 3c 62 12 2f 3d e1 d5 82 3e 34 4a 5a bd
       0.010608282 0.04274214 0.25553802 -0.053293422
0003c0 b3 10 27 bf 98 81 75 bc 74 fb c8 3e 7b f0 d9 3e
       -0.65259856 -0.014984511 0.39254344 0.42566285
0003d0 06 e1 d2 bc 25 32 0c 3c 5b 49 d4 3e 3e 1d d7 3e
       -0.025742065 0.008556877 0.41462216 0.42014498
0003e0 f2 47 1f 3d ec 66 63 bd 1c 71 16 be 40 e9 86 bc
       0.03888697 -0.055518076 -0.14691585 -0.016468644
0003f0 52 d3 b2 3f 53 6a b8 bc ab b6 36 bd 82 0a f0 3e
       1.397074 -0.022511637 -0.0446078 0.46883017

conv1.lin.weight f4 [16, 5]
000000 22 4d 9a 3d ff d1 31 3e e1 3a 07 3c 83 ca b5 3d
       0.07534243 0.17365263 0.008253784 0.08876517
000010 51 cf 87 3c a1 92 0a bd 2b f2 4d 3f 1e ce 90 be
       0.016578348 -0.033831242 0.80447644 -0.28282255
000020 77 1e 15 40 bb 51 2d 3f 29 31 ae 3e 2b 7b 4b bf
       2.3299844 0.67702836 0.3402188 -0.79484814
000030 a4 38 ba bd a0 62 ec 3e 9b 60 2d bf 82 b9 45 be
       -0.090928346 0.46168995 -0.67725533 -0.19309047
000040 9a 04 03 3f db 11 eb be 66 9a 81 3e 7e dc 12 3e
       0.51178896 -0.4591206 0.2531311 0.14341924
000050 0b 06 ee 3d 51 82 8d bf 4a b8 62 bf 94 de 16 bf
       0.11622246 -1.1055394 -0.8856245 -0.5893338
000060 91 4a ab be d4 12 9b be 4c 6f 35 3d 1e 4b c9 3d
       -0.33455327 -0.30287802 0.044295594 0.098287806
000070 60 39 8d be a9 57 ab bd 50 91 84 be 47 1b 76 be
       -0.27582836 -0.08366329 -0.25892115 -0.24033843
000080 1a ed 1c be e6 0a 85 3e 12 23 ad 3e 51 54 8c 3e
       -0.15324822 0.25984877 0.3381582 0.27408078
000090 79 d6 02 bf 60 4d a0 3f 5b aa e5 3d ef 06 89 be
       -0.5110851 1.2523613 0.11214133 -0.26763102
0000a0 1e 07 31 bc bf bd 04 3e 73 67 04 40 88 35 cb 3f
       -0.0108049195 0.12963007 2.068814 1.5875711
0000b0 0d 36 26 3f 06 e5 0a 3e 6a ec 8a 3e 13 83 9d be
       0.64926225 0.13563928 0.27133495 -0.30764064
0000c0 62 71 c5 be a5 2e 2c bc 67 a1 b6 3e 8b 73 d8 3e
       -0.38563067 -0.010509168 0.35670015 0.42275652
0000d0 b7 a2 85 3e 93 87 3a be 49 f4 80 3e 0c 79 a5 bd
       0.26100704 -0.1821578 0.25186375 -0.080797285
0000e0 6a 8d 48 be d0 2d f6 bc c6 45 b0 be f0 f5 83 3e
       -0.19585195 -0.030051142 -0.34428233 0.25773573
0000f0 91 5c f3 3d c2 56 d4 be 7a c7 c1 3e 5c 4e 9f be
       0.1188289 -0.4147244 0.378475 -0.3111447
000100 de 39 92 3e 0d d3 21 3e 8c 67 2d 3f 06 48 7a 3f
       0.28559774 0.15803166 0.67736125 0.9776615
000110 f1 36 32 bf 84 35 0b 3f c2 ea a4 be 99 b2 4e bd
       -0.69615084 0.54378533 -0.32210356 -0.050463293
000120 2a a8 d5 bf 81 7a 92 be 74 db 34 3d 6b c7 aa be
       -1.6691945 -0.28609088 0.0441546 -0.3335527
000130 3e 13 de 3e 19 36 2b bd 6c 38 e5 3e 1b 98 38 be
       0.43374056 -0.04179964 0.4476961 -0.18026774

conv1.lin.bias f4 [16]
000000 fa 69 af be 06 82 5b be b0 d6 8e be ca e1 54 be
       -0.3426054 -0.21436319 -0.2789817 -0.20789257
000010 68 87 b9 be 53 f3 c7 be 90 ea c7 be bd 0e 7c be
       -0.3623612 -0.3905283 -0.39046144 -0.24614997
000020 28 36 ea bd 22 01 cc be c0 e4 cb be a9 9b 58 be
       -0.11436111 -0.39844614 -0.3982296 -0.2115313
000030 11 67 aa bd 7f 2c d8 bd 2b 2c 26 be 9b cd cb bd
       -0.083204396 -0.10555362 -0.16227786 -0.099513255

fc.weight f4 [4, 16]
000000 ca 24 8a 3d 02 f1 ba 3e a8 80 70 be d1 1f ab 3e
       0.06745298 0.36512 -0.23486578 0.33422711
000010 5d 65 3f 3e 5b 8e 15 3e 13 b8 29 3d 02 75 2b 3e
       0.18691011 0.14605086 0.041435312 0.16743854
000020 a1 6e 44 bf 01 24 92 3d e6 f2 58 3c 07 89 20 be
       -0.76731306 0.071357735 0.013241505 -0.15677272
000030 bf c7 13 be cd 2c 11 3f 79 2e 0b 3f d4 d7 4b be
       -0.14431666 0.56708986 0.54367787 -0.1990655
000040 51 dc 3d 3e 33 2b 80 be 67 2a 2a 3f a5 3f 6f 3e
       0.18541075 -0.25032958 0.6647095 0.23364122
000050 36 6d 28 3f e0 35 2c 3e 47 a3 26 3e 26 20 98 3e
       0.6579164 0.16817427 0.16273223 0.29712027
000060 b3 b9 01 bf 58 3f e8 3d 0a 54 66 bd a7 55 9a bd
       -0.5067398 0.11340207 -0.05623249 -0.07535868
000070 37 cf 28 be ea 72 51 bf 21 5f 86 3e c8 32 b9 bc
       -0.16485296 -0.8181597 0.26244453 -0.022607222
000080 c7 56 50 3e 7a f9 d2 3e 20 f0 7c 3e 17 8b 22 3e
       0.20345603 0.4120596 0.24700975 0.15873371
000090 14 d6 59 be 08 db 81 bd 17 98 8b bc 6b 25 9d be
       -0.2127307 -0.06340605 -0.017040296 -0.3069261
0000a0 2d b7 8d 3f 0c d7 59 be 2b e8 4f be 2c 56 d2 3b
       1.1071526 -0.2127344 -0.20303409 0.006418964
0000b0 c5 3c 24 be 93 d6 00 bd 20 e0 e1 be 52 a0 8c 3b
       -0.16038807 -0.031454634 -0.44116306 0.0042915726
0000c0 ef ca 99 bc a5 fb a4 bf af 3a 6a bf 08 1a 25 3e
       -0.018773524 -1.2889296 -0.91495794 0.16123211
0000d0 4f 2b 92 bf e1 9f 99 3d 73 92 a7 bd 8a 8b 3e bf
       -1.1419467 0.075011976 -0.0818223 -0.7443167
0000e0 62 5f 38 3e bd c5 51 be 99 ef 19 3e 7c b2 fd 3d
       0.18005136 -0.20485587 0.15032806 0.12387559
0000f0 61 fb 51 3e ad b9 87 3e 89 20 33 3e 71 32 4f 3e
       0.2050605 0.26508847 0.1749288 0.20234086

fc.bias f4 [4]
000000 b5 45 18 bf 38 85 93 be 45 9b b4 be 70 af 82 3f
       -0.59481364 -0.28812575 -0.3527471 1.0209789
