brain_region_division/Automatically-learned-division/RGNN_Leiden/emotion_model - 副本/RGNN_10.pt (torch, 10267 bytes, 5 tensors)

edge_weight f4 [1953]
1.0969458 0.049208973 1.1244087 0.027295547 0.029662654 0.90393907 0.24167539 0.32568192
0.063944094 1.1386106 0.03706309 0.047484 0.03281283 0.3883802 1.273544 -0.017803859
-0.05038076 -0.0053273723 -0.05571634 -0.038981054 0.9310703 -0.0022223878 0.009680858 -0.021661337
0.044628534 0.009997719 0.030822113 1.3341925 -0.004465901 -0.0055153333 -0.009116792 -0.007922102
-0.0013524379 0.031502146 0.08085799 1.0173955 0.25474054 0.30254668 0.2143803 0.26119316
0.1953969 -0.0692652 0.020270828 -0.05173736 1.0750412 0.14868906 0.20209718 0.12838177
0.2492131 0.10914912 -0.019868597 -0.046888866 -0.021030186 0.044059556 1.2024379 0.13673908
0.2656657 0.14958969 0.29165104 0.07234305 -0.056917932 -0.020676184 -0.0019047187 0.030596908
0.053418163 1.2871102 0.14988685 0.15014587 0.028818374 0.33631346 0.064730525 -0.04729685
0.014936408 -0.004522673 0.10933584 0.09153034 0.05140276 1.3102713 0.02478849 0.026694626
0.014064378 0.21625015 0.037166122 -0.035193395 0.021035405 0.010306991 0.13132176 0.025676072
0.0863075 0.049658164 1.0562044 -0.0048342296 -0.000986911 -0.0016250908 -0.019401966 -0.0009814074
0.014817346 -0.0060890727 -0.0075993454 -0.015067398 -0.004643123 -0.014878057 -0.04318108 -0.006942842
0.8214278 -0.034799036 -0.06511486 5.597291e-05 -0.027829586 -0.058802303 0.02043395 0.083615094
0.045872733 -0.061763566 -0.058204673 -0.06151514 -0.065725565 -0.022084463 -0.0004813762 1.3315498
-0.08365877 -0.027457189 -0.07204119 -0.0014727354 -0.048437 0.00914997 0.42053828 0.013088582
-0.0053240363 -0.11890898 -0.06622368 -0.0005458507 0.0034434213 -0.018482678 0.010347343 2.0049682
0.0023410649 0.0033348207 -0.03720161 0.00427539 -0.008350387 0.005159418 0.08228719 0.0060762926
-0.006853982 -0.030489456 -0.024160776 0.004505173 0.004974302 -0.15157695 0.015674809 0.67695
1.9439754 0.19356173 0.28474492 0.103883155 0.40719345 0.287235 -0.096814826 -0.009199304
-0.09028233 0.29552472 0.29663947 0.3515443 0.3426026 0.17004235 -0.03940695 -0.07150291
-0.008255741 0.0030300436 1.3522811 0.25020555 0.3051723 0.18900408 0.2218431 0.30384246
-0.026800593 -0.060013264 -0.05989901 0.25708982 0.35849553 0.34447998 0.23717937 0.116849996
0.0024474028 -0.08687622 -0.15664564 -0.004720135 0.06801134 1.2720802 0.18827647 0.2537568
0.07713795 0.36572623 0.3063547 -0.11706246 -0.08095219 -0.116270676 0.3319696 0.40057692
0.3856183 0.3912596 0.16039602 -0.03131689 -0.1656133 -0.08294591 -0.0011019117 0.061981417
0.09804799 1.3976437 0.1843608 0.25313565 0.008288722 0.39143017 0.26012933 -0.106937684
0.044787306 -0.08805172 0.2791396 0.16829404 0.2541296 0.4424468 0.24126822 -0.08515071
-0.10499781 -0.0013109155 -0.00525749 0.22320043 0.02397405 0.47013673 1.512195 0.027858183
0.02974408 0.020179607 0.26027545 0.030011315 -0.03993629 0.018071622 -0.006884603 0.079438515
0.059192825 0.015460584 0.038121518 0.04286748 -0.042996705 -0.02750677 0.0026900067 0.0034286943
0.16324356 0.098288424 0.17592978 0.24172783 1.1291018 0.012538335 -0.0105433585 0.010825009
00000000: b868 8c3f 598f 493d a0ec 8f3f e99a df3c
00000010: 18ff f23c 8d68 673f c179 773e c8bf a63e
00000020: 1ff5 823d febd 913f 77cf 173d 957e 423d
00000030: bf66 063d c5d9 c63e 7d03 a33f 66d9 91bc
00000040: 0e5c 4ebd 3d91 aebb d136 64bd 99aa 1fbd
00000050: a05a 6e3f 7ba5 11bb 769c 1e3c 1e73 b1bc
00000060: 69cc 363d 79cd 233c a87e fc3c d2c6 aa3f
00000070: b156 92bb f8b9 b4bb 995e 15bc b4cb 01bc
00000080: 4944 b1ba 6508 013d e098 a53d 043a 823f
00000090: 5a6d 823e 66e7 9a3e 8286 5b3e 1cbb 853e
000000a0: 2016 483e eada 8dbd 020f a63c 8eea 53bd
000000b0: f39a 893f f241 183e 90f2 4e3e 8376 033e
000000c0: b831 7f3e 9389 df3d 78c3 a2bc 8a0e 40bd
000000d0: 7f47 acbc cb77 343d 7ce9 993f 5405 0c3e
000000e0: 5605 883e 0a2e 193e 4953 953e 9828 943d
000000f0: c722 69bd 1a61 a9bc c1a7 f9ba 5ea6 fa3c
00000100: 01cd 5a3d 07c0 a43f f07b 193e d7bf 193e
00000110: 8314 ec3c 4731 ac3e 7091 843d 57ba 41bd
00000120: d6b7 743c ee32 94bb 78eb df3d 4274 bb3d
00000130: b38b 523d f8b6 a73f 3b11 cb3c b0ae da3c
00000140: 476e 663c ae70 5d3e 813b 183d f326 10bd
00000150: 7152 ac3c a7de 283c 3679 063e a056 d23c
00000160: fdc1 b03d 5c66 4b3d b531 873f 7568 9ebb
00000170: 3d5b 81ba 0001 d5ba dff0 9ebc 91a2 80ba
00000180: 74c4 723c d886 c7bb ee03 f9bb 3fdd 76bc
00000190: 5725 98bb 18c3 73bc a5de 30bd c880 e3bb
000001a0: 1849 523f 6f89 0ebd f15a 85bd 74c4 6a38
000001b0: dffa e3bc afda 70bd 1965 a73c 643e ab3d
000001c0: 0ce5 3b3d cbfb 7cbd 0668 6ebd 4df7 7bbd
000001d0: 209b 86bd 7aea b4bc 3861 fcb9 3970 aa3f
000001e0: 4a55 abbd e6ed e0bc 558a 93bd cd08 c1ba
000001f0: e065 46bd c1e9 153c cb50 d73e 7e71 563c
00000200: 4175 aebb 8d86 f3bd 48a0 87bd 6c17 0fba
00000210: 06ab 613b fc68 97bc e787 293c 6651 0040
00000220: 8d6c 193b 028d 5a3b b760 18bd 9218 8c3b
00000230: 10d0 08bc 5610 a93b 3086 a83d a31b c73b
00000240: 5e97 e0bb 06c5 f9bc d2ec c5bc 21a0 933b
00000250: 78ff a23b fd36 1bbe 7568 803c 984c 2d3f
00000260: 30d4 f83f 0c35 463e 16ca 913e b1c0 d43d
00000270: a97b d03e 7710 933e da46 c6bd adb8 16bc
00000280: f1e5 b8bd 044f 973e 21e1 973e 9dfd b33e
00000290: 9c69 af3e 951f 2e3e 2f69 21bd 1e70 92bd
000002a0: 1643 07bc b293 463b 8c17 ad3f f11a 803e
000002b0: 8b3f 9c3e 498a 413e d62a 633e 3d91 9b3e
000002c0: eb8c dbbc 78d0 75bd aa58 75bd 47a1 833e
000002d0: ba8c b73e ae5f b03e 26df 723e 0d4f ef3d
000002e0: 9b64 203b 29ec b1bd b767 20be 5dab 9abb
000002f0: 8849 8b3d 86d3 a23f 8ccb 403e 69ec 813e
00000300: 80fa 9d3d 7840 bb3e 86da 9c3e 71be efbd
00000310: 43ca a5bd 521f eebd ebf7 a93e 6b18 cd3e
00000320: c36f c53e 2e53 c83e db3e 243e 2446 00bd
00000330: 8896 29be 8cdf a9bd 056e 90ba 3ae0 7d3d
00000340: 62cd c83d fde5 b23f 14c9 3c3e ff9a 813e
00000350: 6bcd 073c 8969 c83e ac2f 853e 2502 dbbd
00000360: e572 373d 7654 b4bd 63eb 8e3e 4655 2c3e
00000370: 461d 823e 6388 e23e 040f 773e 7f63 aebd
00000380: 1809 d7bd 06d3 abba 0647 acbb a78e 643e
00000390: 3a65 c43c c3b5 f03e 9b8f c13f d836 e43c
000003a0: dba9 f33c b44f a53c d342 853e 4ada f53c
000003b0: 3c94 23bd f00a 943c 3c98 e1bb a9b0 a23d
000003c0: 2d74 723d 644e 7d3c 4f25 1c3d d095 2f3d
000003d0: 501d 30bd e155 e1bc d34a 303b f2b3 603b
000003e0: 5229 273e 714b c93d f026 343e 8087 773e
000003f0: 6886 903f 976d 4d3c 0dbe 2cbc 615b 313c

conv1.lin.weight f4 [16, 5]
0.099142395 0.34916893 -0.061015174 -0.38097623 0.3514398 -0.33444485 0.23175254 -0.47810215
-0.13786492 0.043699592 -0.13623205 0.16634454 -0.49968952 0.03911901 0.17780592 0.5088728
0.06951426 -0.9177015 0.26703292 0.2531214 -0.5043244 0.18740886 -0.021824716 0.11521625
-0.11896702 0.25152293 0.073035516 0.16836445 -0.048081536 0.16255467 0.2910758 0.019457946
0.4991832 0.5597942 0.19471812 0.21796228 0.24714936 -0.4149557 0.25276557 0.1244899
0.15253639 0.28074634 -0.15980084 0.17409024 0.21802239 -0.0032602847 -0.092960626 -0.2421638
0.35860234 0.003365308 -0.14910045 -0.09723307 -0.057212338 -0.17769806 0.29614118 -0.5495641
0.1419875 0.3300967 0.12100464 0.2465491 -0.019149154 -0.028336719 0.09594267 0.44322637
0.017009623 0.3986741 0.1195513 -0.7717077 0.2813406 0.5332917 -0.24200116 0.2127135
0.26047435 0.43243483 -0.2632061 0.44794896 -0.612793 -0.27285546 0.41973406 0.5857883
00000000: 2b0b cb3d 45c6 b23e 0ceb 79bd 510f c3be
00000010: ebef b33e 5b3c abbe 8a50 6d3e cec9 f4be
00000020: 762c 0dbe 58fe 323d 6a80 0bbe 3956 2a3e
00000030: 4ed7 ffbe 413b 203d c112 363e 7d45 023f
00000040: 7e5d 8e3d 7cee 6abf 8ab8 883e 2199 813e
00000050: 671b 01bf 1ce8 3f3e bfc9 b2bc 7ff6 eb3d
00000060: fba4 f3bd 9dc7 803e a593 953d bb67 2c3e
00000070: 25f1 44bd bb74 263e e307 953e 4566 9f3c
00000080: f194 ff3e ac4e 0f3f 3064 473e 8131 5f3e
00000090: b914 7d3e 1375 d4be 7d6a 813e 90f4 fe3d
000000a0: 8032 1c3e fcbd 8f3e d5a2 23be b644 323e
000000b0: 4341 5f3e 80aa 55bb 2462 bebd caf9 77be
000000c0: ba9a b73e 808c 5c3b caad 18be 2222 c7bd
000000d0: 7c57 6abd 7bf6 35be d19f 973e 3cb0 0cbf
000000e0: 2c65 113e 6f02 a93e 48d1 f73d 5e77 7c3e
000000f0: b0de 9cbc 6822 e8bc 977d c43d 91ee e23e
00000100: c457 8b3c 031f cc3e 50d7 f43d a38e 45bf
00000110: e00b 903e ce85 083f 27cf 77be 91d1 593e
00000120: e55c 853e 1968 dd3e f3c2 86be 9159 e53e
00000130: 01e0 1cbf b6b3 8bbe 62e7 d63e 39f6 153f

conv1.lin.bias f4 [16]
-0.47321725 0.11105518 0.06984639 -0.056956433 0.12952016 -0.24160944 0.011626252 -0.33242545
-0.17944084 -0.4268393 0.10641562 0.22090466 -0.23982951 0.07755937 0.07177884 0.06386064
00000000: 8849 f2be e670 e33d a00b 8f3d 264b 69bd
00000010: efa0 043e 7768 77be 097c 3e3c ab33 aabe
00000020: 57bf 37be ae8a dabe 6ff0 d93d d534 623e
00000030: de95 75be 72d7 9e3d c900 933d 5ec9 823d

fc.weight f4 [4, 16]
0.17325287 0.039753985 -0.1960703 -0.22417586 0.051193412 0.15715598 0.07857411 -0.18453728
-0.100786775 0.2331349 -0.05109496 0.0020782892 -0.08146198 0.09265037 0.06854458 0.27792528
0.15342183 0.08220033 -0.043074105 -0.029241618 0.19462939 -0.014692134 0.10581998 0.18066329
-0.076992266 0.0197905 0.13481846 0.21805622 0.04336528 -0.46943653 -0.09006087 -0.27907312
0.14722027 0.057863403 0.0050824266 0.1620777 0.15809491 0.19484346 -0.24762143 -0.057635304
0.11927243 0.11717349 0.07960404 0.109998286 -0.17802915 0.25356823 -0.23286177 -0.48574072
0.10869373 0.040423453 0.044870295 -0.064319715 -0.08975953 0.0927403 -0.3937907 0.2078797
0.09693049 -0.023016036 0.1430399 -0.023028042 -0.16984272 0.31550074 -0.14042467 0.7913851
00000000: 3369 313e 13d5 223d a7c6 48be 5b8e 65be
00000010: 2fb0 513d 7fed 203e 77eb a03d 57f7 3cbe
00000020: 4c69 cebd eaba 6e3e f348 51bd e833 083b
00000030: 8ad5 a6bd 7abf bd3d 1a61 8c3d 394c 8e3e
00000040: 9d1a 1d3e a658 a83d 796e 30bd 1e8c efbc
00000050: ed4c 473e 47b7 70bc 25b8 d83d ccff 383e
00000060: 1fae 9dbd b01f a23c da0d 0a3e 214a 5f3e
00000070: cb9f 313d fc59 f0be d571 b8bd ace2 8ebe
00000080: e9c0 163e 2d02 6d3d 7c8a a63b b2f7 253e
00000090: a2e3 213e 0b85 473e 7990 7dbe ff12 6cbd
000000a0: 1b45 f43d a8f8 ef3d 7107 a33d c846 e13d
000000b0: 464d 36be b2d3 813e 5173 6ebe 02b3 f8be
000000c0: d19a de3d 1093 253d eac9 373d 0eba 83bd
000000d0: d8d3 b7bd a0ee bd3d ef9e c9be 6bde 543e
000000e0: 7e83 c63d 208c bcbc 0d79 123e 4ea5 bcbc
000000f0: 40eb 2dbe 5089 a13e 7ccb 0fbe 3798 4a3f

fc.bias f4 [4]
0.12057505 -0.18815592 0.031230256 -0.16980053
00000000: 0df0 f63d f2ab 40be 98d6 ff3c 31e0 2dbe
