brain_region_division/Automatically-learned-division/RGNN_Leiden/emotion_model - 副本/RGNN_2.pt (torch, 10267 bytes, 5 tensors)

edge_weight f4 [1953]
00000000: dd6a d53f 02e4 3d3f b402 ec3f 48aa 8a3e
00000010: e2ce ef3e f8a8 953f ef9a 813f 4d1d 923f
00000020: 91ea 113f 2ca2 0440 95e0 843f 9c35 a33f
00000030: a7c3 1e3f 1918 3d3f 9050 2f40 7eca 50bc
00000040: da44 0bbd 9f04 e6bd 0c32 23bd c15f 38bd
00000050: 45fc 923f c38a 8a3e 5a91 a03d ca3a c93e
00000060: 5933 903d 7f4c 053d 284e 1f3e b966 9a3f
00000070: 5b33 3fbf 2e82 10bf 4e95 eabe a1d6 15bf
00000080: 577c d4be e6d1 923b 4082 66be 58ad fc3f
00000090: 5d92 bd3f 9560 dc3f 4423 4f3f 5c99 a53f
000000a0: 8cda 713f ef55 11bd afc6 3a3d 4d0b 2fbf
000000b0: 975c 0840 5f16 d13d e8d0 843d 2aec 1c3e
000000c0: cb32 1bbb 3569 833d 2a86 673e 6089 793d
000000d0: 2f81 873d 7095 1f3d 6048 08be 62f3 023f
000000e0: 5bf8 513f 8e4a 433d 503f 9b3e 58ef 5a3f
000000f0: b83c 39be 624b 99bc cfc9 de39 a14b ce3e
00000100: 9f4f 983d 744a 9b3f 624d 10bf 71b5 b6be
00000110: 7a5b 13bf ece8 99be bdfe 79be 50ad c63e
00000120: 20c6 a8be e2da e03e cf68 92be d57a 383e
00000130: d89e 063b 9c2f 1840 1e2f 93bc f89b 9fbc
00000140: 14f3 83bd d7fb c1bc ce3b 3bbc 53dc 413f
00000150: ce1b 8cbd 5a3d 703d fef9 2bbd da35 a83e
00000160: 3cdd d2bd 20c5 693f 62f3 2040 1073 22bc
00000170: cf30 6ebc 17fe 143b 3a33 ebbc 8680 c6bc
00000180: 1e1d 143f 4778 94be 969f 103c cc95 98bc
00000190: 9fd8 1b3e 1bb0 b8bd 039b aa3e 0c8a b03f
000001a0: 78dd 0440 4fa0 4dbe e6f6 c9be d9af 2abd
000001b0: b619 c2be 731a e8be 106c 8d3b 0016 673c
000001c0: 1c9c a3bc 9b3d e7be b2b4 d9bd f8d8 0abf
000001d0: e3a8 d6be 52e2 10bd 98d1 443c b2d0 a63f
000001e0: e808 dabc 549e 33bd 84f0 2cbe 1b2f 71bd
000001f0: 2ae6 b6bd e725 113f 9e57 70be 8bc7 b73c
00000200: 7ea3 a9bd 75b2 5c3e 156d 6bbe 33e1 f83e
00000210: d630 7e3f b1b4 3f3f 6cbc f03d c42f 0f40
00000220: 1916 8f3d f249 f23b 57c5 103e 381c d63b
00000230: 6355 e73b f9be 3dbe 27e9 d73c e7d5 76be
00000240: 490d 833b 811b 4f3e 7901 ba3c 4b76 71be
00000250: 59bb 1e3e 3dd9 173b f03b a93d e3a1 b2bd
00000260: df87 c23f 7762 5d3c 83da 3b3c a4cc dfbd
00000270: 2905 533c 5f6d 553c 9e04 7d3e e327 32bd
00000280: bd01 bb3d 2971 1a3c 892e 9ebd f2aa 9c3c
00000290: 3bb7 123c 137c b1bc 7926 aebd f459 12bd
000002a0: 569d c23d fbe9 81be 546b 823f 896b 3a3f
000002b0: 706c 523f 30a0 873e cb26 013f f4f6 173f
000002c0: ac53 cebd 26d4 3a3c 942b 27be 8c38 ed3e
000002d0: 4c66 363d 5035 643e a708 a3bc 2f61 8fbd
000002e0: 4c8a 50bd 4374 d0be 4d66 01be b757 6cbc
000002f0: dcbf 503c 73fe b43f 83ba 753e 815f dd3e
00000300: 4f4a f83c 51ef a03e c1c9 bf3e 46fd 81bd
00000310: e8a5 ffbd ff16 343d 2cd8 913e b702 0a3e
00000320: 899d cc3e bed3 df3d 9ef9 dfbd 57fb 06be
00000330: 4d06 e2be 7cab 26be 937c 1cbe dfd0 643e
00000340: 3a25 9e3e 40cf a33f 6207 d0be d661 30be
00000350: 9d7a b8be e7b6 69be 0ad8 63bd d0ff db3e
00000360: 9832 8fbe 3bac f83e 1bf6 2fbe f682 19be
00000370: 7f26 173d 6826 6c3f c5b0 b13e f2fa 823e
00000380: 2cbf d8be e180 e93e 6685 fbbe 2d6e 853c
00000390: d341 eb3c 62a2 643e e363 a53f e7f1 ac3b
000003a0: ef27 253b c92e 163c 3da5 ac3a c0d0 383c
000003b0: f885 f73e 4329 b13e 1713 1a3e bd89 26bc
000003c0: b3c6 a63e dd51 953c 74c1 ed3e e9be 903f
000003d0: 0997 993f e5bb c6bc a573 693f 85bf 2a3e
000003e0: df79 103e 472a 563c f51e 993c 9d64 2a3f
000003f0: 64cf 0140 19d1 f9bb 45ee 6ebc 0666 cc3c
1.6673237 0.7417604 1.8438325 0.2708304 0.46837527 1.169219 1.0125407 1.1415192
0.56998545 2.0723982 1.0381037 1.2750735 0.6201729 0.73864895 2.7392921 -0.01274359
-0.03400121 -0.1123135 -0.03984265 -0.045013193 1.1483237 0.27058992 0.078402236 0.39302665
0.07041044 0.032543655 0.15557158 1.2062598 -0.7468774 -0.5644864 -0.45817035 -0.5853062
-0.41501114 0.0044805882 -0.22510624 1.97404 1.4810292 1.7216974 0.80913186 1.2937427
0.944741 -0.035482343 0.045599636 -0.6837662 2.1306512 0.10209345 0.06485158 0.15324464
-0.0023681398 0.06416551 0.22609773 0.060922027 0.06616437 0.038960874 -0.13308859 0.5115262
0.82019585 0.047678523 0.3032174 0.8552146 -0.18089569 -0.018712703 0.000424935 0.40292075
0.074370615 1.2132096 -0.56368077 -0.35685304 -0.5756146 -0.30060518 -0.24413581 0.38804102
-0.32963657 0.43916994 -0.28595588 0.18015607 0.0020541456 2.3779058 -0.017966803 -0.019483551
-0.06442848 -0.023679657 -0.011427833 0.75726813 -0.06841241 0.05865226 -0.041986458 0.32853585
-0.10296103 0.91316414 2.514855 -0.009915128 -0.014538004 0.0022734457 -0.02871095 -0.024231207
0.5785693 -0.28998014 0.008827111 -0.018626116 0.15219353 -0.090179645 0.3332139 1.3792129
2.0760174 -0.20080684 -0.3944618 -0.041671608 -0.3791024 -0.4533268 0.0043158606 0.014104366
-0.0199719 -0.4516419 -0.10630168 -0.5423732 -0.41925725 -0.035372086 0.012012862 1.3032439
-0.026615575 -0.043852165 -0.16888624 -0.058882814 -0.08930619 0.5669846 -0.23470923 0.022434017
-0.08283137 0.21552451 -0.2299083 0.48609313 0.9929327 0.7488509 0.117546886 2.2372904
0.06986637 0.007394069 0.14137779 0.0065341257 0.0070597394 -0.18529882 0.026356293 -0.24105035
0.0039993864 0.20225336 0.02270578 -0.23580281 0.15501155 0.0023170256 0.08263385 -0.08722284
1.5197715 0.013512245 0.0114656715 -0.10927704 0.012879648 0.013026564 0.24708793 -0.04349507
0.09131191 0.009426394 -0.077237196 0.019124482 0.008954818 -0.021665609 -0.08503432 -0.035730317
0.09502666 -0.25373825 1.0189004 0.72820336 0.8219671 0.264894 0.5044982 0.59361196
-0.10074553 0.011403119 -0.16325217 0.46332204 0.04453115 0.22285962 -0.019901587 -0.07000958
-0.05091314 -0.407137 -0.12636681 -0.01442521 0.012741055 1.4140152 0.2399693 0.43236926
0.03030887 0.31432584 0.37458614 -0.06347136 -0.12482816 0.043967243 0.2848524 0.13477598
0.3996394 0.109290585 -0.109362826 -0.13181816 -0.44145432 -0.16276354 -0.15281896 0.22345303
0.30887777 1.2797623 -0.40630633 -0.17224821 -0.36031047 -0.22823678 -0.055625953 0.42968607
-0.27968287 0.485689 -0.17183726 -0.14991364 0.036901947 0.92246103 0.34705177 0.2558208
-0.42333353 0.4560614 -0.49125212 0.016287887 0.02871791 0.22327569 1.2921108 0.0052778604
0.0025200804 0.009166428 0.0013171803 0.011280239 0.48344398 0.34601793 0.15046345 -0.010164675
0.3257347 0.018227512 0.46436656 1.1308261 1.1999217 -0.024259517 0.91192085 0.16674621
0.1410899 0.013071603 0.01869152 0.66559774 2.028283 -0.0076238033 -0.014583175 0.024950992

conv1.lin.weight f4 [16, 5]
00000000: 0197 353e a797 043e d181 cd3f c3d1 253f
00000010: 49ff aa3f 21e9 3c3a 7a24 793e 7a90 e03d
00000020: aec7 4b3e 343c 803d d968 d3bd 32de a03e
00000030: 6b40 bfbe 7659 eebe 966b fe3d 48c8 993d
00000040: 4b7e c53d f585 0c3e 5baf 3d3e 1469 923e
00000050: 4ed9 843e 60c5 57bb 871d fe3f dc31 403f
00000060: bf50 ba3f 4bda f73e c50f 67be 96ee 0f3f
00000070: eea9 b23e abe1 d83e 7569 163f ba91 f6bd
00000080: 689a 403f 5cc1 6f3f deb6 593e cff6 4cbe
00000090: c5dd 1ebd b8d6 c4be 4acc d33e 3285 5d3d
000000a0: 254c 483e 0d0d b5bd f20b 423c 4f95 3f3e
000000b0: 3761 8c3e 0f55 9dbe 6b58 25bf cf21 fdbf
000000c0: 51bf 59bd 6944 8ebe 9a49 9bbe 11ca eb3e
000000d0: 00fb 62c0 66e7 b9be e354 b23d 3523 7cbd
000000e0: ce84 48be e95a c3bd 6387 303e 0466 89be
000000f0: 125d 073f c1c6 86be c658 233f 339c e83e
00000100: 34a7 c33e 338d 29be ca93 73be 448f d4bd
00000110: ed8f 32bf a2e8 cfbe 58a2 47be 3a4b 3b3e
00000120: 9304 36c0 5d60 3dbd dd8a bfbd 143d ad3e
00000130: a638 76be 4733 fb3f 7810 023f fa39 b43f
0.17733385 0.12948476 1.6055242 0.64773196 1.3359157 0.000720637 0.24330321 0.10965057
0.1990039 0.06261483 -0.103227325 0.31419522 -0.37353835 -0.46552628 0.12422864 0.07508904
0.09643229 0.13722976 0.18523924 0.28595793 0.2594704 -0.003292404 1.9852761 0.7507608
1.4555892 0.48408732 -0.2256461 0.5622343 0.3489527 0.4235967 0.58754665 -0.12039514
0.75235605 0.9365442 0.21261165 -0.20016025 -0.038785715 -0.38445067 0.41366798 0.054082103
0.19560297 -0.0884038 0.011843668 0.187093 0.2741792 -0.30728957 -0.6458804 -1.9775943
-0.05316097 -0.27786568 -0.3032959 0.46052602 -3.5465698 -0.36309355 0.08707597 -0.061557014
-0.19581911 -0.09538824 0.17239146 -0.26835644 0.5287639 -0.26323512 0.6380733 0.4543167
0.38213503 -0.1655777 -0.23786846 -0.10378888 -0.69750863 -0.40607172 -0.19495523 0.18290415
-2.8440292 -0.046234477 -0.09352658 0.3383566 -0.24045047 1.9625024 0.5080638 1.4080193

conv1.lin.bias f4 [16]
00000000: 0d2c ddbd 2f2e 10be 52b1 a1be 1698 6dbe
00000010: c70f 0bbe ffc2 98bd 3120 eabd 0250 d1be
00000020: 757a cfbe 097c e4bd 6bb5 b2bd 5905 adbe
00000030: 0137 b1bd 9d85 afbd ad1f 4dbd f4cc febd
-0.10799418 -0.14080118 -0.31580597 -0.23202547 -0.13580237 -0.074590676 -0.11431921 -0.40881354
-0.40523115 -0.1115647 -0.08726009 -0.33793142 -0.08653069 -0.085704066 -0.050079037 -0.124414355

fc.weight f4 [4, 16]
00000000: 5c3b 073f e188 8b3e 1e18 88bd f592 853e
00000010: 3fd2 dc3e 14fe 3cbe e9b0 f8bd e390 0dbe
00000020: 19c3 183e 5771 f0be bdf9 2bbf 3742 253e
00000030: c446 16be f5e4 373e 92a1 43bf 7e07 083f
00000040: 6baf f0be f341 b23d 9778 1cbe 4e48 c13d
00000050: 90a1 39bf ef63 a93e 60ac 8b3e 9158 fb3d
00000060: 225a aa3d 68bf 33be a814 adbf 118d 103e
00000070: e4bc b33e 0290 1fbe 855f 9cbf 1581 47bf
00000080: 51e1 9fbe 8b98 28be 6269 333e 5dab 43be
00000090: 9a30 8dbe 433d 7dbd 2e1f 1abd ac7e a2bd
000000a0: 9b43 7fbd 317b 613f 13dc 143f b248 0c3e
000000b0: 5216 fabc 2b9a 103e dea1 5f3f d15f adbe
000000c0: 7615 1a3f 790f dcbd 0720 febd ba46 e83b
000000d0: 816f 133f 2c1e d03d 743c 253e 2535 ed3d
000000e0: b446 7e3e db3e 13be 9a38 5c3f 21ac 2bbe
000000f0: e7de 1a3e a36b d9be 5c6e 8d3f dbe6 0e3f
0.5282495 0.27252868 -0.06645225 0.26088682 0.43129155 -0.18456298 -0.12143118 -0.13824801
0.14918174 -0.4696147 -0.67177945 0.1613854 -0.14675432 0.17958434 -0.7641841 0.5313643
-0.47008833 0.08703985 -0.15280376 0.09437619 -0.7251215 0.33084056 0.2727995 0.12272752
0.08317973 -0.17553484 -1.3521929 0.14116313 0.3510505 -0.15582278 -1.221665 -0.7793134
-0.3122659 -0.1646444 0.17520669 -0.19108339 -0.27576143 -0.061826 -0.03762739 -0.07934317
-0.062320333 0.880786 0.58148307 0.13699606 -0.030528221 0.1412131 0.87356365 -0.33862165
0.60188997 -0.10745139 -0.124084525 0.0070885094 0.57592016 0.10162005 0.16136342 0.11582402
0.24831659 -0.14379446 0.8602387 -0.1676488 0.15124093 -0.42464933 1.1049304 0.5582101

fc.bias f4 [4]
00000000: 61d8 0f3f 5fef 783f 1700 0a3e d25d b5bf
0.56189543 0.9724025 0.13476597 -1.4169257
