brain_region_division/Automatically-learned-division/RGNN_Leiden/emotion_model - 副本/RGNN_11.pt (torch, 10267 bytes, 5 tensors)

edge_weight f4 [1953]
0	0x3f8b97a8	1.0905657
1	0x3e343c13	0.17601041
2	0x3fb4994a	1.410928
3	0x3cdf4524	0.027254649
4	0x3e851f9a	0.26000673
5	0x3fadbd07	1.3573312
6	0x3d166edd	0.03672682
7	0x3ca4538f	0.020059375
8	0x3cbf63b9	0.023362981
9	0x3f713724	0.9422476
10	0x3c89e523	0.016832894
11	0x3d3cfaf0	0.04613775
12	0x3e26dc30	0.16294932
13	0x3b7ec108	0.003887238
14	0x3f8f4158	1.1191816
15	0x3be4c26e	0.0069811856
16	0x3cb8ed22	0.022574011
17	0x3c0fd362	0.008778425
18	0xbd4dbcac	-0.05022876
19	0xbcaee480	-0.021349192
20	0x3f559e4b	0.8344466
21	0xbc957b61	-0.018247308
22	0x3c84c736	0.016208272
23	0xbc43c99f	-0.011949926
24	0xbd9dcffc	-0.077056855
25	0xbd20f5f9	-0.039297078
26	0xbdce6df1	-0.100795634
27	0x3f38be25	0.7216514
28	0x3bd6db4d	0.0065569044
29	0xbcc36337	-0.02385102
30	0xbbde5592	-0.006785103
31	0xbc44062f	-0.011964365
32	0xbc0e48e9	-0.008684375
33	0xbd913f5c	-0.07092163
34	0xbdacb910	-0.08433735
35	0x3f59b7a5	0.85045844
36	0x3d6fc7bd	0.058540095
37	0x3c28ddf9	0.010306829
38	0x3b87ad7f	0.0041405554
39	0x3d93213e	0.07184075
40	0x3d0852f3	0.03328223
41	0xbd88bb83	-0.0667639
42	0xbd5bfa81	-0.053705696
43	0xbcaf89ef	-0.021428077
44	0x3f7b1e9b	0.98093575
45	0x3c165bdb	0.0091771735
46	0xbc637218	-0.013882183
47	0x3bd2ae6d	0.0064294846
48	0x3c62556b	0.013814311
49	0x3b2a14b8	0.002595229
50	0x3c2de6a4	0.010614071
51	0xbd1978f7	-0.037468877
52	0xbd0445b7	-0.032293048
53	0x3c023067	0.00794611
54	0x3f839810	1.0280781
55	0xbc860d88	-0.016363874
56	0xbc1c82da	-0.009552682
57	0xbc3092d8	-0.010777198
58	0xbd154d5d	-0.036450732
59	0x3c059fe4	0.008155797
60	0xbd4355b7	-0.047689166
61	0xbd74bbaf	-0.0597493
62	0xbd31d41a	-0.043415166
63	0x3c1a9966	0.009435987
64	0x3c977a92	0.018491063
65	0x3f5c44d8	0.8604255
66	0x3c1371fb	0.008999343
67	0x3bc3b19a	0.0059720995
68	0x3ca95cca	0.020674128
69	0xbd14c193	-0.03631742
70	0x3c26b3cf	0.010174706
71	0xbd8e40da	-0.06945963
72	0xbdaef1db	-0.08542224
73	0xbd824719	-0.06361217
74	0x3cc1a176	0.02363656
75	0x3c6ec9f4	0.014574517
76	0xbd921be1	-0.07134224
77	0x3f535118	0.82545614
78	0x3c92dd4a	0.017927784
79	0x3c78a3af	0.015175744
80	0xbbf1f18e	-0.007383532
81	0xbd3ce3c9	-0.04611567
82	0x3c3d62a2	0.01155916
83	0xbd90b8f7	-0.07066529
84	0xbdb3c4f9	-0.08777804
85	0xbd861967	-0.06547814
86	0x3ccceb86	0.02501465
87	0x3bd1a411	0.006397732
88	0xbd72ced6	-0.059279285
89	0xbda8b925	-0.082384385
90	0x3f533cb7	0.8251452
91	0xbde1f698	-0.11033362
92	0xbc1558cc	-0.009115409
93	0xbcc89bf1	-0.024488421
94	0xbe12dedd	-0.14342828
95	0xbdf850f0	-0.121248126
96	0xbd8f92ce	-0.07010423
97	0xbd8e14dd	-0.06937573
98	0xbd860a8e	-0.06544982
99	0xbd83a265	-0.06427459
100	0xbd1ebcb5	-0.038754184
101	0xbd59fa85	-0.05321743
102	0xbd84e19d	-0.06488345
103	0xbdb6be70	-0.08923042
104	0x3f409725	0.7523063
105	0xbe474b7d	-0.1946239
106	0xbdd3a056	-0.10333316
107	0xbe0d8066	-0.13818511
108	0xbe4ca162	-0.19983438
109	0xbe400752	-0.18752792
110	0xbdb44e59	-0.08804006
111	0xbd82292e	-0.06355511
112	0xbd7f1e76	-0.06228491
113	0xbd855f78	-0.0651235
114	0xbd04e882	-0.0324483
115	0xbd665ebc	-0.05624269
116	0xbdb268c8	-0.08711392
117	0xbdac5090	-0.084138036
118	0xbd32c4a7	-0.043644574
119	0x3f3eefad	0.74584466
120	0xbec1f0c9	-0.37879017
121	0xbe438c71	-0.19096543
122	0xbe732715	-0.23745377
123	0xbe87b53c	-0.26505458
124	0xbe7a0f94	-0.24420005
125	0xbcdf3fbc	-0.02725207
126	0xbd5a7ae4	-0.053339854
127	0xbd26c082	-0.040710934
128	0xbd3e0891	-0.04639489
129	0xbc3b922c	-0.011448424
130	0xbcdef39d	-0.027215773
131	0xbd5f6441	-0.05453897
132	0xbd5330b6	-0.051560126
133	0xba176f05	-0.0005776736
134	0x3bba546c	0.0056863334
135	0x3f59b70e	0.85044944
136	0xbb835eba	-0.004009095
137	0xbb8eb720	-0.0043553263
138	0xbbddb9f7	-0.0067665535
139	0xbbcbffdb	-0.0062255687
140	0xbc6894a5	-0.014195596
141	0x3da8ec44	0.08248189
142	0xbc7389aa	-0.014864365
143	0x3d83207e	0.06402682
144	0x3c255e11	0.010093228
145	0xbbc6555a	-0.006052655
146	0x3cd1eeae	0.025626507
147	0x3c2ad662	0.010427089
148	0x3c8a376a	0.016872127
149	0xbc804a45	-0.015660414
150	0x3c94052a	0.018068869
151	0x3d263c82	0.04058505
152	0x3f7f85bb	0.9981343
153	0x3c508023	0.012725863
154	0xbbf829f9	-0.007573363
155	0xbbd2a3d4	-0.0064282212
156	0x3d4efbfd	0.050533284
157	0xbbac4507	-0.005257252
158	0x3df50e48	0.119656146
159	0x3df560ea	0.119813755
160	0x3e0c093b	0.13675396
161	0x3d9b7b19	0.075918384
162	0x3da4c3b5	0.08045141
163	0x3bf4eb75	0.0074743577
164	0x3d250567	0.040288355
165	0x3cf069e0	0.02934736
166	0x3d97829c	0.07397959
167	0x3c98e715	0.018664876
168	0x3db9d875	0.09074489
169	0x3d36de1a	0.044645406
170	0x3f843eaa	1.0331624
171	0x3c3dc2c6	0.011582082
172	0xbc8a9aa0	-0.016919434
173	0xbc8faeb2	-0.017539356
174	0x3bb24690	0.0054405406
175	0x3b669372	0.00351831
176	0x3dbbf41e	0.09177421
177	0xbb9ecc00	-0.004846096
178	0xbade0d48	-0.0016941214
179	0xbc03d10f	-0.008045449
180	0x3d7650f4	0.060135797
181	0x3d0448fe	0.032296173
182	0x3d3af3ee	0.045642786
183	0x3d0c86d6	0.034308277
184	0x3ab1f265	0.0013576268
185	0x3aafd92f	0.0013416166
186	0x3a730b59	0.0009271405
187	0x3d5b7779	0.053580735
188	0x3db23a45	0.0870252
189	0x3f8270f4	1.019072
190	0xbc704ab2	-0.014666246
191	0xbc2672fc	-0.01015925
192	0xbcab72f2	-0.020928834
193	0x3ccbffec	0.024902306
194	0xbc572361	-0.013130994
195	0x3d5b2a72	0.053507276
196	0xbc646116	-0.013939163
197	0xbc0d1643	-0.008611265
198	0xbc0f9c0b	-0.008765231
199	0x3c0bc667	0.0085311895
200	0x3d4c7506	0.04991629
201	0x3d76521e	0.060136907
202	0x3d7694f4	0.060200647
203	0xbc060732	-0.008180426
204	0xbbe8cdc8	-0.007104609
205	0x3a9a1241	0.0011754708
206	0x3d307e58	0.04308924
207	0x3db9fc20	0.09081292
208	0x3da1d6d3	0.079023026
209	0x3f8b4cee	1.0882852
210	0x3c8cbf22	0.017180983
211	0xbc0ec91b	-0.0087149395
212	0xbba7fe09	-0.005126719
213	0xbc332474	-0.010933984
214	0x3c0a6afb	0.008448358
215	0x3c353770	0.011060581
216	0xbcec0fbf	-0.028816102
217	0xbcbb612f	-0.02287349
218	0xbca92d41	-0.020651462
219	0xbaaef84e	-0.0013349147
220	0x3c7d1bbf	0.01544851
221	0x3d02f014	0.031967238
222	0x3cc327e0	0.023822725
223	0xbcb897a3	-0.022533244
224	0xbc91d0d9	-0.017799782
225	0x3a9a9b77	0.00117956
226	0x3bd77bff	0.006576061
227	0x3d34b293	0.044115614
228	0x3d384325	0.04498591
229	0x3d90a7db	0.07063266
230	0x3f83f4c3	1.030907
231	0xbc91bf18	-0.017791316
232	0xbcb3261d	-0.02186876
233	0xbc80b06e	-0.015709128
234	0xbd666ff2	-0.056259103
235	0xbcc563fd	-0.02409553
236	0xbd483e92	-0.048887797
237	0xbd560e72	-0.05225987
238	0xbd3b3af6	-0.045710526
239	0xbd2561fe	-0.040376656
240	0xbc81af78	-0.01583074
241	0xbcb2b0c5	-0.021812806
242	0xbd0e7145	-0.03477599
243	0xbc897d02	-0.016783241
244	0xbc97beed	-0.018523658
245	0xbce1f7d3	-0.027583992
246	0x3aa82cfa	0.0012830787
247	0x3b1a3b38	0.0023533832
248	0x3c9f8ec2	0.019477252
249	0x3b9be127	0.004757065
250	0x3c2e7265	0.010647391
251	0x3d08fece	0.033446126
252	0x3f637653	0.88852423
253	0xbd472830	-0.04862231
254	0x3cb745df	0.022372184
255	0xbbfe649a	-0.0077634575

conv1.lin.weight f4 [16, 5]
0	0xbe910054	-0.28320563
1	0x3dee398b	0.11632069
2	0x3e8294ad	0.25504056
3	0x3de5780e	0.11204539
4	0x3ddde815	0.10835282
5	0x3eca0f03	0.39464578
6	0xbe52f8fc	-0.20602793
7	0x3e5771c3	0.2103949
8	0xbe70d802	-0.235199
9	0x3e9de7af	0.30840823
10	0xbec1e09d	-0.3786668
11	0xbe33dea4	-0.175654
12	0x3e8762aa	0.26442462
13	0xbe4c9df3	-0.19982128
14	0xbeac53fe	-0.3365783
15	0x3e212834	0.15737993
16	0xbee68895	-0.4502608
17	0x3db982de	0.09058164
18	0x3e1b7426	0.15181026
19	0x3ef5c2a0	0.4800005
20	0x3e9a0d94	0.30088484
21	0xbe047c6e	-0.12938091
22	0xbe9b2e3b	-0.3030871
23	0x3e896341	0.26833537
24	0x3ecc8cd8	0.39951205
25	0xbd2e003d	-0.042480696
26	0xbefd06d6	-0.49419278
27	0xbdd2befd	-0.102903344
28	0xbec7614c	-0.3894142
29	0x3e853344	0.26015675
30	0x3d7cc080	0.06170702
31	0xbe9e7e66	-0.3095581
32	0x3ec09a06	0.3761751
33	0x3eab1b68	0.33419347
34	0xbe7f8a67	-0.2495514
35	0x3e29f3e9	0.1659695
36	0xbdd6a69a	-0.104809955
37	0xbd97a78a	-0.074050024
38	0xbcb28aab	-0.021794638
39	0x3e2a1a28	0.1661154
40	0xbe0c5dfa	-0.13707724
41	0xbf2180ff	-0.6308746
42	0xbf2f7b94	-0.6854794
43	0x3d941bd3	0.072318695
44	0xbe08ca7a	-0.13358489
45	0x3e87c7e8	0.26519704
46	0x3d08f2ef	0.033434805
47	0xbf363f6e	-0.71190536
48	0xbe3d7c2e	-0.18504402
49	0xbc9431a2	-0.018090073
50	0x3cf9d04c	0.030494832
51	0xbf036de9	-0.51339585
52	0x3f0bed8b	0.54659337
53	0x3f0f8488	0.560616
54	0xbebde561	-0.37089065
55	0x3e0747a8	0.13210928
56	0xbe8633fc	-0.26211536
57	0xbe8e54e6	-0.27799147
58	0x3d3fe8ed	0.046852995
59	0x3e9cc865	0.3062164
60	0x3ed41f89	0.4143031
61	0xbf3dfccd	-0.7421387
62	0xbe1985b8	-0.14992416
63	0x3eebd442	0.46060377
64	0x3e956e59	0.2918575
65	0x3e8fd64f	0.28093192
66	0x3e83204d	0.2561058
67	0x3f0c8784	0.5489428
68	0x3d847c73	0.06469049
69	0x3df119ca	0.11772497
70	0x3e037d4d	0.12840767
71	0xbda3e76a	-0.08003123
72	0xbe0f5a9e	-0.13999411
73	0xbc293f1e	-0.01032999
74	0x3e87355f	0.26407906
75	0x3e8cf875	0.27533308
76	0xbeaee2a3	-0.34157285
77	0x3deacc56	0.11464755
78	0x3ec79888	0.3898356
79	0xbe53d63c	-0.20687193

conv1.lin.bias f4 [16]
0	0x3e6373fe	0.22212216
1	0xbed1742e	-0.4090895
2	0xbed38f70	-0.41320372
3	0x3e3a21f3	0.18177013
4	0x3da902df	0.08252501
5	0x3d847667	0.06467896
6	0xbecd0408	-0.40042138
7	0xbdc8001b	-0.09765645
8	0xbd1c4064	-0.038147345
9	0xbea5a17b	-0.32349762
10	0x3c883a10	0.016629249
11	0x3e5eb95e	0.217504
12	0xbd12708d	-0.035751868
13	0x3d1e66c7	0.038672235
14	0x3cafd640	0.021464467
15	0xbe487664	-0.19576412

fc.weight f4 [4, 16]
0	0x3de6990b	0.112596594
1	0xbe3f510c	-0.1868326
2	0x3e1ccc4d	0.1531231
3	0x3da9c6fc	0.082899064
4	0xbd62ec39	-0.05540106
5	0x3c501c5f	0.012702077
6	0xbe472410	-0.1944735
7	0xbe38569d	-0.1800179
8	0x3d278c1c	0.040905103
9	0x3d700d35	0.058606345
10	0x3e90398f	0.28168914
11	0x3b539474	0.003228453
12	0xbe9f96d8	-0.31169772
13	0xbd5f35e5	-0.054494757
14	0xbe270a38	-0.16312492
15	0xbde1ccd5	-0.11025397
16	0x3dd74f22	0.1051314
17	0x3e1589b6	0.14603314
18	0xbd9622ca	-0.07330854
19	0x3dda0b5a	0.106466964
20	0x3da51ec2	0.08062507
21	0xbcec2632	-0.028826807
22	0xbe1a52a8	-0.15070593
23	0x3e102e2a	0.1408011
24	0xbe770081	-0.24121286
25	0xbd44ac8f	-0.048016127
26	0x3e5a3bdf	0.21311902
27	0xbcdd8d80	-0.027045012
28	0x3ee0bf66	0.43896025
29	0xbd535550	-0.051595032
30	0x3c8db2de	0.017297205
31	0xbe0f7772	-0.14010409
32	0x3db326d5	0.08747641
33	0x3e1fac94	0.15593177
34	0x3e387cc0	0.18016338
35	0x3c5b73df	0.013394325
36	0x3cc276c7	0.023738278
37	0x3e0962a8	0.1341654
38	0x3e717c48	0.23582566
39	0x3c898bc1	0.016790273
40	0x3ed72bae	0.42025512
41	0x3e0c9855	0.13729985
42	0xbcee6189	-0.029099243
43	0xb9934ca7	-0.00028095135
44	0xbe07138f	-0.13191055
45	0xbd9d33e2	-0.076759115
46	0xbe0dcf8b	-0.13848703
47	0xbe1a4e91	-0.15069033
48	0x3e22d197	0.15900265
49	0x3ddf754d	0.10911045
50	0xbe3d2be1	-0.1847377
51	0x3d907842	0.07054187
52	0xbd823d74	-0.063593775
53	0x3e0375f9	0.12837972
54	0x3d96ba3c	0.0735974
55	0xbe730c23	-0.23735099
56	0xbdeec15c	-0.11657974
57	0x3d9c7f8a	0.07641514
58	0x3b419d97	0.0029543394
59	0x3cccc141	0.024994494
60	0x3d897196	0.06711118
61	0xbd801749	-0.06254441
62	0xbe299b8e	-0.16563246
63	0xbd60ab57	-0.054850902

fc.bias f4 [4]
0	0xbe1942f1	-0.14966942
1	0xbe18471e	-0.14870879
2	0xbe28129b	-0.16413347
3	0xbe1243b4	-0.14283639
