brain_region_division/Automatically-learned-division/RGNN_Leiden/emotion_model - 副本/RGNN_12.pt (torch, 10267 bytes, 5 tensors)

edge_weight f4 [1953]
00000000: 76e9 b53f 2353 52bf aa55 3d40 dbfc 943c
00000010: 6958 243f 6096 3940 e2cb bb3e efd7 ecbe
00000020: f2d3 12bc cc09 b23f 287c 23bf 11a7 1240
00000030: bcdd 873c 9f9c 6fbe b971 1440 6ac4 7d3e
00000040: 7d28 7ebe 543c a6be 80c2 f83d 0fe9 87be
00000050: 68c1 ad3f 6fc1 123e 37d0 17be 923c 03bd
00000060: f35d 6e3e 1422 30be c253 2e3f ac55 d93d
00000070: a140 cd3e eeba 9abe 3f2e aabc 9e32 853e
00000080: 62ad 36be 906b 163f 9128 d83d a18f 843f
00000090: 1548 01bd c1bd b73f eb92 3d40 62c9 49bd
000000a0: 9d0f 883e dd4f fdbe 8d5d f0bc 8d59 b8bc
000000b0: 114d 2040 da05 34bf 9087 943f e66c a8bc
000000c0: cc67 e1be 84f6 1f3d a554 b2bc 7dd2 4dbe
000000d0: 4326 2ebf 4194 8e3c d608 2340 742f d3be
000000e0: e8bc 493c d161 16be 818d 75be 975f 56bc
000000f0: 744e 2bbc 665a d03c 8ef2 8fbc ba17 bdbd
00000100: 51c5 8a3f e251 0d40 a6b8 94bc d88c 34bd
00000110: 71b4 c3be 664c b1bc 51c1 aabc 1839 06bc
00000120: 7011 cf3b f04b b43c 2c9e 3abf 6d07 98bc
00000130: 80ee e53e 84d9 bc3e 0b0e 00bf 95cf a9bd
00000140: ea8a 82be 0ace 08bf 5ca1 84be 375a 12bd
00000150: 24d3 a43c fdde 72bc 71f3 a7be 767f ffbc
00000160: 851e 00bc 4065 043f 8d3d cb3f 4276 483d
00000170: f8c7 eebc 150e bcbd 756e 5a3d 69c3 b8be
00000180: 2b0e 0cbd c2af 1e3b dcb5 7dbb 3af5 61be
00000190: cc17 6c3b 6227 a03b 3971 2b3e 06b7 f93e
000001a0: 7bb7 5e3f 814c 073e 64df b4be d4a9 93bd
000001b0: e9a6 a4ba a559 a8bd 30bb f73e 5e50 853f
000001c0: e03a 363f 0dd8 cebd 429f a9be d9cd 27be
000001d0: 572e d23d 30ef d23d 4564 88bb 0abb a23f
000001e0: d985 acbc 1bba 583c 9f3a e5bb 5195 813c
000001f0: ca19 7ebb 4ad8 a13c 64cc 27be eae0 71bd
00000200: 0ff3 52bc 823a 263e b4f8 9b3e 13f4 3bbe
00000210: bdfd e9bc e067 f1bd a152 903d b9b3 433e
00000220: e609 c3be fcde 163e 8aca b5bc 11b5 0dbf
00000230: a3c1 983c 99df b8bc 0b9d 6cbd 110e 6ebe
00000240: 6cd1 ccbb d9a9 353e 3ee7 563c 3e63 2cbc
00000250: 4beb af3c 0fca d63b 6134 be3b 2aab bc3e
00000260: a6a7 883f f1b4 b1be 573a af3c beb5 23bd
00000270: 80aa 80be 702a 293c 105a 4d3d 95c7 9b3a
00000280: 0e86 bfbc 8cb9 e1bb 3e5d 2c3c 6326 343f
00000290: 9dc4 c43e 35e0 233e a185 2e3e e24d 02bc
000002a0: 2c78 a03e 1920 c23c b14f 543f 8fbe 42bc
000002b0: 33a5 a7bc 5a5f 8cbc 0fff 88b8 4372 0fbc
000002c0: 2f67 913e 1f23 6f3f 1d29 2e3f 6639 95be
000002d0: a193 69bd 5481 72bc ac3a 793e 62bc 7c3c
000002e0: 5f5f 5b3f 9fe8 c83d 2af5 003d ce8d cabe
000002f0: 1031 b53b 81a7 e03e f951 0bbd 479d 49bb
00000300: 989f c5be de24 863c 18a2 02bc 6a32 773e
00000310: 5ecf 0e3f 4771 933b 096f 3bbf 5783 313c
00000320: 1420 c73c bfbc 0c3e 9246 da3d 87cd 423e
00000330: 0edc 153e d797 133d 9a41 713c f9b5 213d
00000340: 5127 463e 7fa1 c03f e131 6a3c 2431 eabd
00000350: d254 58be 100e 1e3e b60c 8cbc c47b 7e3f
00000360: 1173 d13c 6c0c a63c 659f 97be c3ca 3ebc
00000370: 32ca 8a3c 3a01 f8bb e4cd c1bc 517e b7bc
00000380: af86 4b3f 1473 f03c 63cf 3abd f30f f4b9
00000390: 0df6 c93e a2b3 f93e 0a23 ba3f 1e5c 993d
000003a0: 1d90 e8bd f279 66be b92a 5e3e f656 e6bd
000003b0: 9005 ce3e a254 993c de93 8f3c 0138 95be
000003c0: 0f72 9ebb 37f8 a93c 1188 503c 29f8 cc3c
000003d0: 9e88 9a3b 92dd 2d3f a454 8c3c ff2e 81bc
000003e0: 9fe2 86bc 6c56 493f 286b 703f 69bc f13d
000003f0: 1b6e be3e c136 a13d 4b81 1abb 5ae8 32bd
1.4211872 -0.82158107 2.9583535 0.018186977 0.64197403 2.8998032 0.36678988 -0.46258494
-0.0089616645 1.390924 -0.6386132 2.291447 0.016585223 -0.2339959 2.319441 0.24781957
-0.24820133 -0.32467902 0.12146473 -0.26544997 1.3574648 0.14331602 -0.14825521 -0.032040186
0.23278026 -0.172005 0.68096554 0.10612044 0.4008837 -0.3022074 -0.020774005 0.2601518
-0.17839578 0.5875788 0.105546124 1.0356332 -0.031562883 1.4354783 2.9620922 -0.04926432
0.26574412 -0.49474993 -0.029341483 -0.022503639 2.5047038 -0.7032143 1.160387 -0.02055974
-0.44024503 0.039053455 -0.021768877 -0.20099826 -0.6802713 0.017404677 2.5474143 -0.4124714
0.012313105 -0.14685751 -0.2397976 -0.013084314 -0.010455716 0.02543373 -0.017571714 -0.09233041
1.0841466 2.2081227 -0.018154453 -0.04407963 -0.38223603 -0.021642875 -0.020844134 -0.008192323
0.0063192174 0.022008866 -0.728976 -0.018558228 0.44908524 0.368847 -0.5002143 -0.08291546
-0.25496608 -0.5343939 -0.25904357 -0.035730567 0.020120211 -0.014823672 -0.3280292 -0.031188708
-0.007819776 0.51716995 1.5878159 0.048940904 -0.029148087 -0.091823734 0.053327996 -0.36086586
-0.0341932 0.0024213647 -0.0038713133 -0.22066203 0.0036024926 0.0048875073 0.1674241 0.48772448
0.8699872 0.13212778 -0.35326684 -0.072101265 -0.001256195 -0.08220223 0.48385 1.0415151
0.71183586 -0.10099802 -0.33129317 -0.16387118 0.10262745 0.10299528 -0.0041623437 1.271333
-0.021059917 0.013227965 -0.0069955136 0.01581827 -0.0038772696 0.019756455 -0.16386563 -0.059052385
-0.0128753325 0.16233256 0.30463183 -0.18354826 -0.028563375 -0.11787391 0.0704701 0.19111528
-0.3809349 0.147335 -0.022191305 -0.5535441 0.01864702 -0.022567557 -0.057766955 -0.23247553
-0.006250551 0.17740573 0.013116656 -0.010521708 0.021474501 0.006554849 0.005804584 0.36849338
1.0676162 -0.3470836 0.021390123 -0.039968245 -0.2513008 0.010325059 0.05013472 0.0011885042
-0.023379352 -0.006888574 0.010520278 0.70371073 0.38431254 0.16003497 0.17043163 -0.007953139
0.31341684 0.023696946 0.829341 -0.011886253 -0.020464515 -0.01713531 -6.532494e-05 -0.008755269
0.28399035 0.93412966 0.68031484 -0.29145354 -0.057025556 -0.014801342 0.24338788 0.015425773
0.856924 0.09809994 0.031483807 -0.39561313 0.0055295303 0.43877795 -0.034013722 -0.003076391
-0.38598323 0.016375002 -0.0079732165 0.24140325 0.5578517 0.0044995877 -0.732163 0.0108345365
0.024307288 0.13743876 0.106579915 0.19023715 0.14634725 0.036033478 0.014725113 0.039480183
0.19350936 1.5049285 0.014294119 -0.11435154 -0.21126106 0.15435052 -0.017095905 0.994076
0.025567563 0.020269595 -0.29613796 -0.011645022 0.016942117 -0.0075685056 -0.023657747 -0.0223991
0.79502386 0.029351749 -0.045607936 -0.0004655119 0.39445534 0.4876986 1.4541943 0.07488273
-0.113556124 -0.22507456 0.21695985 -0.11247055 0.4023862 0.018717114 0.017526563 -0.2914429
-0.004835374 0.02074824 0.012727753 0.025020676 0.004715993 0.67916214 0.017130204 -0.01576948
-0.016465483 0.78647494 0.9391351 0.118035145 0.3719338 0.078717716 -0.00235756 -0.04367862

conv1.lin.weight f4 [16, 5]
00000000: 050b c33e 1039 b5be 5d7b 99be ada1 ba3e
00000010: 3f2c 8b3d 2708 903e 75c5 75be 4f09 7bbd
00000020: e6f1 6b3e 87f1 463e c26f 513e ca21 873d
00000030: f2d8 fdbe 1048 51be 0d88 91bd cd3c 50bd
00000040: 3b23 a93f 086f babe e393 dfbe 2d73 913f
00000050: 3378 22be 16fe ab3d c6df d63d 315e 163e
00000060: 5024 42be b4a6 62bd 61ad 12bf 4b03 06bf
00000070: 481c 1140 63be 67bf b9b8 8dbe a5e5 b5bf
00000080: a742 d63e 12e1 5ebf 6846 1cbf 9caf 9bbe
00000090: 8da0 b6bf 7de5 5f3e 5e6c 16bf a9ca 65bf
000000a0: e48a 1a3e 8642 043e a5a9 883e 0d05 bf3e
000000b0: 049a 523e d556 bcbe 6426 993f 367e dabf
000000c0: 3881 c8bf 6515 753e 74cd 213e 0d7a 943f
000000d0: 733b b43f 6196 663f e216 a53f a853 fd3c
000000e0: 9278 cebe bc46 90be aba9 c53d 58e6 413e
000000f0: bb8e 9ebe ced0 273e 2206 79be 8727 30be
00000100: dfec 83be 0346 37be 97f9 373d 4bb8 2f3e
00000110: 884e 99be 176a 503c 72e7 063c dce2 a43f
00000120: eb21 953f 01b4 363f 70bb 8b3f f86e 753e
00000130: fc48 4fbf c1a3 b23f 242f a4bf 5fc6 973f
0.38094345 -0.35395098 -0.2997693 0.36451474 0.06795549 0.2813122 -0.24001105 -0.061288174
0.23041496 0.19428073 0.20452788 0.065982416 -0.4957958 -0.20437646 -0.07106028 -0.050839234
1.3213876 -0.36412835 -0.43667516 1.1363274 -0.15866165 0.083980724 0.104919 0.14684369
-0.18959165 -0.05533476 -0.57295805 -0.52348775 2.2673512 -0.9052488 -0.27679995 -1.4210707
0.41847727 -0.8706218 -0.6104493 -0.30407417 -1.4267746 0.21864887 -0.58759105 -0.8976236
0.15092045 0.12916002 0.26691929 0.3730854 0.20566565 -0.36784998 1.1964841 -1.7069767
-1.5664434 0.23933943 0.1580103 1.1599747 1.4080642 0.9007321 1.2897608 0.03092368
-0.40326363 -0.28178966 0.09651502 0.18935525 -0.3096827 0.16388246 -0.24318746 -0.17202578
-0.25766656 -0.17897801 0.04491576 0.17160146 -0.29942727 0.012720606 0.008233892 1.2881732
1.1650976 0.71368414 1.0916576 0.23968112 -0.8097074 1.3956224 -1.2826886 1.1857413

conv1.lin.bias f4 [16]
00000000: ff69 88be ca69 a3be 7d0a debe 2326 38be
00000010: fbf1 94bd d6d5 46be db11 22be 1a5c 2bbe
00000020: cdfd c2be a48b 39be 78b4 1fbe bc6a 18bf
00000030: ba9a 8cbe 785d 27be dbc2 13be ef5e 7dbd
-0.2664337 -0.31916648 -0.43367377 -0.17983298 -0.072727166 -0.1941751 -0.15827124 -0.16734353
-0.3808426 -0.18119675 -0.15596187 -0.59537864 -0.27461797 -0.16344249 -0.144298 -0.061858114

fc.weight f4 [4, 16]
00000000: f4eb 02be 030e 5f3e 93e0 a2bd 8b91 73bf
00000010: b0a4 0a3d 5c7d 713f 7853 963f 5090 8b3f
00000020: a90e c0bd f8ec 963e a814 f53e ae8f 013e
00000030: 836b 21be 1613 153e 6b8f 433f 280f 16c0
00000040: ba5f 873e 4e89 c3bd 976e 023e 4ea1 b13f
00000050: c578 04be 3dba 95c0 3b1e 88be b08e 013c
00000060: a628 6f3e fccf f13f c435 e83e 7e6b 8abd
00000070: 8553 d439 5e2e 0bbd 57ba 253f fc50 4e40
00000080: 13e2 0ebe f199 41be b26b c83c 9b2f 873f
00000090: ca44 373e 237e c33f 6504 c5bf 2194 acbf
000000a0: 0aff 33bd fe2e fe3e 4e77 963e 32d9 843e
000000b0: 3310 2b3e acfe 9c3d 697d ee3e 7329 98c0
000000c0: b56b 9f3d c262 7abe d009 223e 07a3 16c0
000000d0: 62d2 cebd 503c b33f dee6 cc3d d486 6a3c
000000e0: f379 c03d b0b4 29c0 d5ae d2bf 0bff 6abe
000000f0: b71e 37be 6377 b1bd 9152 09c0 4f13 923e
-0.12785321 0.21782689 -0.079529904 -0.95143956 0.033848464 0.9433191 1.1744223 1.0903416
-0.09377796 0.29477668 0.47867322 0.12652466 -0.15763669 0.14558062 0.76390713 -2.344675
0.2644022 -0.09547673 0.12737499 1.3877351 -0.12936695 -4.678984 -0.26585564 0.0079075545
0.2335535 1.8891597 0.4535352 -0.06758784 0.00040498018 -0.033979766 0.6473746 3.223693
-0.13953428 -0.1890638 0.024465416 1.0561403 0.17897335 1.5272869 -1.5391966 -1.3482705
-0.043944396 0.49645227 0.29387897 0.25946957 0.16705398 0.07665762 0.46580055 -4.7550597
0.07784215 -0.24451736 0.15824056 -2.3537004 -0.10098721 1.4002781 0.10004972 0.014314372
0.0939826 -2.6516533 -1.6459605 -0.22948854 -0.1788281 -0.08665349 -2.1456645 0.28530356

fc.bias f4 [4]
00000000: 14b1 a2bf 119e 2bbf 3cde 8c3e b60e b73f
-1.271029 -0.67038065 0.275133 1.4301364
