brain_region_division/Automatically-learned-division/RGNN_Leiden/emotion_model - 副本/RGNN_5.pt (torch, 10267 bytes, 5 tensors)

edge_weight f4 [1953]
1.0498958 0.2907541 1.5730851 0.020799873 0.45970252 1.3843908 0.10580298 0.017310813
-0.017052896 1.5860021 -0.018514367 -0.010205712 -0.017520776 -0.07252351 1.1948044 -0.18510266
-0.1538161 -0.10347509 -0.16362411 0.004759241 1.0269899 -0.013846967 -0.03345314 -0.034438655
0.006416353 -0.0043537607 0.00942936 1.1722226 -0.036803894 -0.053767875 -0.03935565 -0.06754286
0.034419216 0.0375057 0.07046077 1.3891753 0.007700081 -0.00016537041 -0.027463064 0.6326894
-0.06711369 -0.04766728 0.008432914 -0.0016362905 1.4884372 0.18759203 0.04216365 0.020451512
0.44172925 -0.110632904 -0.13046393 0.14478421 -0.0005076696 0.46521136 1.1216828 -0.007417864
-0.011168197 -0.01946367 -0.06217414 0.09001092 0.029380329 0.027933275 0.053095523 -0.3878959
-0.13473399 1.3332345 -0.040786 -0.019015562 -0.015761642 -0.18216084 0.22954544 0.02710794
-0.0068477336 0.075386584 -0.10623908 -0.19394079 0.07390983 1.3697244 -0.037729684 -0.016610399
-0.010122099 -0.19937508 0.27560884 0.02544145 -0.010127138 0.118867986 -0.10818541 -0.17291825
0.036802966 0.27673683 1.3765811 -0.082634896 -0.013646755 -0.011442404 -0.19470657 0.058370303
0.006678261 0.011698991 0.029295985 -0.2960669 -0.18206719 0.09430667 0.3971482 0.41616252
1.2672939 -0.009199172 -0.012284299 -0.008871014 -0.063934304 -0.047854036 0.0036394577 -0.062149744
-0.030016355 -0.03842768 0.0265207 0.034917645 -0.018456921 -0.037912205 -0.021541016 1.0910727
-0.11272872 -0.14722188 -0.04401607 -0.14120246 0.052495927 0.05204673 0.0047539915 0.055871297
-0.011380018 -0.12151661 0.014468207 0.25529495 0.2170543 0.23284878 -0.07628835 1.2691386
-0.1058818 -0.032359093 -0.019915648 -0.12620293 0.13592917 0.05283037 -0.09701067 0.07808181
-0.05575339 -0.057885893 0.084177785 0.22737174 0.22585143 0.15881895 -0.11307207 0.19847548
0.8410186 0.03387015 0.020885225 -0.014878422 -0.008449507 0.048996564 0.0044278293 0.22859567
0.082619384 -0.03572425 -0.018988447 0.12801756 0.025808036 0.02135326 0.009652791 0.17825536
0.0094372695 -0.21882242 0.91653603 -0.05613324 -0.019425632 0.0073463204 -0.061533306 0.14011413
0.090377845 0.092286825 0.16223846 -0.04874921 -0.1743606 0.048473857 0.18247357 0.17874952
0.16457054 -0.08215622 0.17473555 0.020869842 -0.23186485 0.8363433 -0.14356677 -0.0635006
-0.025484594 -0.22500038 0.46453992 0.09523004 -0.01112996 0.10069613 -0.03544514 -0.08162294
0.0040444187 0.27251205 0.2797262 0.30468157 -0.06160932 0.57795274 0.25397345 0.007057858
0.1796237 1.3189154 -0.004350134 -0.0082407 0.0027851993 -0.015205264 0.08794459 0.042696547
-0.0118666375 0.018509306 -0.05377247 -0.06935385 0.025808271 0.017096834 0.10995397 0.064782254
0.007305733 0.008094357 -0.1010901 0.17018686 0.028664527 0.027677217 0.7860337 -0.11392141
-0.030265726 -0.001211041 -0.3531931 0.008148785 0.087752655 -0.063382104 0.018742353 -0.24224047
-0.3672742 0.02172698 0.053755067 0.104516424 0.053882282 -0.00970354 0.0075004147 -0.025849791
-0.14287406 0.032006126 0.11879255 -0.08087431 0.64404476 -0.1608722 -0.18261099 -0.22675373
00000000: fc62 863f b9dd 943e da5a c93f 7f64 aa3c
00000010: 215e eb3e b833 b13f 3caf d83d 68cf 8d3c
00000020: 84b2 8bbc 1e02 cb3f 71ab 97bc dc35 27bc
00000030: bb87 8fbc 3587 94bd 5aef 983f 8d8b 3dbe
00000040: f881 1dbe bfea d3bd 148d 27be 68f3 9b3b
00000050: 6874 833f 64de 62bc 2906 09bd 8c0f 0dbd
00000060: 4540 d23b fea9 8ebb 9a7d 1a3c 640b 963f
00000070: aebf 16bd b43b 5cbd 6433 21bd e953 8abd
00000080: 2afb 0c3d 949f 193d bc4d 903d 7fd0 b13f
00000090: f650 fc3b 4867 2db9 38fa e0bc eff7 213f
000000a0: e772 89bd c43e 43bd 342a 0a3c cc78 d6ba
000000b0: 1c85 be3f 2018 403e cbb3 2c3d ee89 a73c
000000c0: 562a e23e 8193 e2bd 5698 05be 5042 143e
000000d0: 2115 05ba 2f30 ee3e 4d93 8f3f 8e11 f3bb
000000e0: d0fa 36bc 4672 9fbc 50aa 7ebd a557 b83d
000000f0: 04af f03c 53d4 e43c b17a 593d 4b9a c6be
00000100: b5f7 09be 6ea7 aa3f 390f 27bd 86c6 9bbc
00000110: 8f1e 81bc 5f88 3abe f60d 6b3e 7811 de3c
00000120: f462 e0bb 4864 9a3d e093 d9bd 6a98 46be
00000130: 095e 973d 2153 af3f 718a 1abd 8812 88bc
00000140: 29d7 25bc fb28 4cbe 9a1c 8d3e 966a d03c
00000150: 4cec 25bc 0f71 f33d 5090 ddbd 7b11 31be
00000160: b5be 163d 73b0 8d3e cf33 b03f 7c3c a9bd
00000170: a496 5fbc ec78 3bbc 2961 47be b315 6f3d
00000180: 50d5 da3b 20ad 3f3c 22fe ef3c 1596 97be
00000190: d26f 3abe db23 c13d 0257 cb3e 4113 d53e
000001a0: b036 a23f 20b8 16bc 1644 49bc bb57 11bc
000001b0: fdef 82bd 9802 44bd f883 6e3b bb90 7ebd
000001c0: dce4 f5bc 5866 1dbd f041 d93c ce05 0f3d
000001d0: f832 97bc d449 1bbd c976 b0bc 45a8 8b3f
000001e0: 51de e6bd 55c1 16be 324a 34bd 6197 10be
000001f0: f805 573d f42e 553d 5fc7 9b3b 4dd9 643d
00000200: 4173 3abc b3dd f8bd 0f0c 6d3c 05b6 823e
00000210: 7b43 5e3e e96f 6e3e 113d 9cbd 2273 a23f
00000220: 8fd8 d8bd f88a 04bd 2426 a3bc 573b 01be
00000230: 0431 0b3e a864 583d 88ad c6bd 5be9 9f3d
00000240: ab5d 64bd c219 6dbd 6765 ac3d 23d4 683e
00000250: 9945 673e 6fa1 223e 5492 e7bd 283d 4b3e
00000260: ff4c 573f 6dbb 0a3d 7e17 ab3c a0c4 73bc
00000270: cd6f 0abc 9fb0 483d 5317 913b fc14 6a3e
00000280: 5a34 a93d 9753 12bd a98d 9bbc 0917 033e
00000290: 606b d33c 08ed ae3c bd26 1e3c 9388 363e
000002a0: c79e 1a3c fc12 60be 1ba2 6a3f f8eb 65bd
000002b0: 8122 9fbc 67b9 f03b 590a 7cbd 147a 0f3e
000002c0: 0518 b93d e000 bd3d d721 263e 40ad 47bd
000002d0: 968b 32be 868c 463d 5ada 3a3e 1d0a 373e
000002e0: 2e85 283e 8541 a8bd e0ed 323e 3bf7 aa3c
000002f0: fb6d 6dbe 981a 563f 2b03 13be 9a0c 82bd
00000300: 11c5 d0bc 8066 66be 2dd8 ed3e f807 c33d
00000310: 705a 36bc c639 ce3d ec2e 11bd ee29 a7bd
00000320: 0b87 843b b386 8b3e 4638 8f3e 39ff 9b3e
00000330: 0e5a 7cbd b6f4 133f cf08 823e 9b45 e73b
00000340: 46ef 373e 38d2 a83f 928b 8ebb 0004 07bc
00000350: e487 363b 801f 79bc 4b1c b43d 93e2 2e3d
00000360: 496c 42bc d4a0 973c 8640 5cbd 6409 8ebd
00000370: de6b d33c a90e 8c3c 8c2f e13d 8fac 843d
00000380: ee64 ef3b 329e 043c 5408 cfbd 7745 2e3e
00000390: dfd1 ea3c 55bb e23c 8139 493f a14f e9bd
000003a0: d4ef f7bc cbbb 9eba bad5 b4be 7b82 053c
000003b0: aab7 b33d 7ace 81bd 9089 993c e30d 78be
000003c0: 5d0b bcbe c8fc b13c 462e 5c3d b50c d63d
000003d0: abb3 5c3d 99fb 1ebc 0ac6 f53b f1c2 d3bc
000003e0: 944d 12be db18 033d 8249 f33d 6ea1 a5bd
000003f0: 1ee0 243f afbb 24be 60fe 3abe 2132 68be

conv1.lin.weight f4 [16, 5]
-0.2331557 -0.16961236 -0.15988323 0.019999472 -0.08983027 0.47304246 0.032514423 0.52970934
0.08774928 0.011767767 0.056745857 -0.8023069 -0.7915475 -0.14463022 0.22819561 0.38704988
0.4858889 0.3451818 0.3988607 -0.16285464 -0.3691312 -0.009699403 0.3948753 0.3392556
0.337921 0.3120544 -0.30333483 0.24652061 0.20431992 0.3413628 0.015233399 -0.00083603145
-0.30783495 0.30693293 0.25994053 1.0184247 -0.25408316 -0.44430017 0.4682314 1.319516
0.059335027 -0.48381713 0.14186679 0.20722106 0.34460068 -0.114317596 -0.94897705 0.075022556
0.610861 -0.48571157 -0.60055333 -0.6597094 -0.4397295 -0.28127056 -0.44389382 -0.57052326
-0.54243416 -0.27374023 0.054368842 -0.46514285 -0.5609922 -0.674611 -0.02204175 0.32076913
-0.3107939 -0.31003582 -0.027195422 -0.3393112 0.34540048 -0.64303017 -0.29272375 -0.57348424
-0.5412563 -0.25491637 -0.056376114 1.1520325 -0.36238912 -0.233523 0.34517047 1.4614129
00000000: 5ec0 6ebe ddae 2dbe 6eb8 23be efd5 a33c
00000010: eff8 b7bd 9f32 f23e d82d 053d 089b 073f
00000020: e5b5 b33d 98cd 403c 586e 683d fc63 4dbf
00000030: dba2 4abf f219 14be 1cac 693e 672b c63e
00000040: 6ec6 f83e abbb b03e 7837 cc3e 5ec3 26be
00000050: c4fe bcbe 3fea 1ebc 182d ca3e e9b2 ad3e
00000060: fb03 ad3e 98c5 9f3e b44e 9bbe e66f 7c3e
00000070: 3e39 513e 1bc7 ae3e 8295 793c 1f29 5bba
00000080: 8b9c 9dbe 5026 9d3e ed16 853e be5b 823f
00000090: 3017 82be 507b e3be 07bc ef3e e6e5 a83f
000000a0: 4909 733d e1b6 f7be 8745 113e c231 543e
000000b0: 806f b03e 581f eabd 29f0 72bf 6da5 993d
000000c0: 6361 1c3f 30af f8be ddbd 19bf b7e2 28bf
000000d0: 3a24 e1be b202 90be 0d46 e3be d00d 12bf
000000e0: f7dc 0abf ae27 8cbe ddb1 5e3d 3427 eebe
000000f0: 2f9d 0fbf 4eb3 2cbf e690 b4bc da3b a43e
00000100: 6120 9fbe 04bd 9ebe efc8 debc 33ba adbe
00000110: 55d8 b03e a09d 24bf e3df 95be ddcf 12bf
00000120: c68f 0abf 6684 82be a4ea 66bd cd75 933f
00000130: 118b b9be a720 6fbe 2fba b03e 940f bb3f

conv1.lin.bias f4 [16]
-0.3440337 -0.09270642 -0.14827178 -0.27501655 -0.45647255 0.06702697 -0.04398384 -0.29692662
-0.4133674 -0.021817442 -0.13579902 -0.039664406 0.04977427 -0.3254165 -0.04796124 -0.35415232
00000000: 2f25 b0be dddc bdbd 8fd4 17be f8ce 8cbe
00000010: c5b6 e9be 7045 893d 6628 34bd c406 98be
00000020: e4a4 d3be 7eba b2bc e60e 0bbe 2577 22bd
00000030: 1be0 4b3d fe9c a6be 0173 44bd 7453 b5be

fc.weight f4 [4, 16]
0.171852 0.15780894 0.035191827 -0.17471911 -0.090266846 0.05405444 0.089999706 -0.66637886
0.013721268 -0.09250043 -0.37993237 -0.2836656 0.20517625 -0.2565684 -0.33018374 -0.74373007
0.01675695 -0.15313749 -0.19640183 -0.110573344 0.19941474 0.018594623 0.027687008 -0.76423955
0.044656932 0.5497919 0.26364863 0.07738857 0.14585756 0.64664507 0.21507299 -0.51286584
-0.028225118 -0.07198261 0.24996267 0.341034 -0.113347314 0.030855034 0.028618976 -0.7621469
-0.09816726 -0.17080192 -0.016266853 -0.15407749 0.13716994 -0.2590338 0.2942616 -0.71733654
0.10813626 -0.021637201 0.33823308 -0.013310083 0.18091638 0.020704258 0.08244922 1.8683078
-0.09726052 -0.014938021 -0.05793951 -0.06301016 0.12669317 -0.08989221 0.12095336 1.4799995
00000000: f8f9 2f3e ab98 213e 4e25 103d 91e9 32be
00000010: d3dd b8bd 3068 5d3d c451 b83d ce97 2abf
00000020: 2bcf 603c de70 bdbd 7f86 c2be 9e3c 91be
00000030: b919 523e ef5c 83be d80d a9be 1865 3ebf
00000040: df45 893c 13d0 1cbe 901d 49be 4774 e2bd
00000050: 6133 4c3e c053 983c ddcf e23c 34a5 43bf
00000060: 30ea 363d 29bf 0c3f f4fc 863e e67d 9e3d
00000070: af5b 153e 888a 253f 183c 5c3e 2d4b 03bf
00000080: 5d38 e7bc 9e6b 93bd 37f6 7f3e 029c ae3e
00000090: a322 e8bd b2c3 fc3c 5872 ea3c 0f1c 43bf
000000a0: eb0b c9bd b3e6 2ebe 1042 85bc 7dc6 1dbe
000000b0: 4776 0c3e 14a0 84be 75a9 963e 5ea3 37bf
000000c0: 8b76 dd3d 8040 b1bc e32c ad3e 8912 5abc
000000d0: 2542 393e fa9b a93c 23db a83d b624 ef3f
000000e0: 8630 c7bd 9abe 74bc fb51 6dbd 790b 81bd
000000f0: dbbb 013e 6819 b8bd 65b6 f73d a070 bd3f

fc.bias f4 [4]
0.88134426 -0.29912874 0.4939129 -0.8517035
00000000: c79f 613f 6727 99be 27e2 fc3e 3e09 5abf
