brain_region_division/Automatically-learned-division/RGNN_Leiden/emotion_model - 副本/RGNN_8.pt (torch, 10267 bytes, 5 tensors)

edge_weight f4 [1953]
0	0x3f8b892b	1.0901235
1	0xbe826243	-0.25465593
2	0x40231ab8	2.5485058
3	0x3d97229c	0.07379648
4	0x3c5bf15d	0.013424245
5	0x3f26df3f	0.65184397
6	0xbe3015dd	-0.1719584
7	0x3f24c985	0.64369994
8	0xbe8d656a	-0.27616435
9	0x3fb46b2b	1.4095205
10	0x3ded3662	0.11582638
11	0x3c63414a	0.013870547
12	0x3ebb8505	0.36624923
13	0x3cc18f19	0.023627805
14	0x3ffc68af	1.9719447
15	0x3e7ad770	0.24496245
16	0xbf89b30c	-1.0757766
17	0x3d100d25	0.035168786
18	0x3c20f67b	0.0098243905
19	0x3c968bd3	0.01837722
20	0x3f0ac622	0.54208577
21	0x3e880b50	0.2657113
22	0x3d943ee5	0.07238559
23	0xbe2584aa	-0.16163889
24	0x3f58aa5d	0.84634954
25	0xbe04c787	-0.12966739
26	0x3da75220	0.08169961
27	0x3f752643	0.9576151
28	0x3ec356ca	0.38152152
29	0x3e5f35f5	0.21797927
30	0x3d8d1b3e	0.06889962
31	0x3f6eb6a6	0.9324745
32	0xbe4b9be5	-0.19883688
33	0x3cbec526	0.023287367
34	0x3f62df4c	0.88621974
35	0x3fd822eb	1.6885656
36	0x3f491412	0.7854625
37	0xbebf08f0	-0.37311506
38	0x3e7b8da1	0.24565746
39	0x3c9dd499	0.019266414
40	0x3e435e9f	0.19079064
41	0x3f4372bc	0.76346946
42	0x3d64256f	0.055699762
43	0x3dc37a5b	0.09544822
44	0x3f96bd23	1.177647
45	0x3f4338a4	0.762583
46	0xbe462c69	-0.19352879
47	0x3e89f4fa	0.26944715
48	0x3cd9522e	0.026528444
49	0x3f74cbba	0.9562336
50	0x3facab3d	1.3489758
51	0x3e9ae367	0.3025162
52	0x3d137419	0.03599939
53	0x3f7d58d8	0.9896369
54	0x403a9789	2.915499
55	0xbe353d26	-0.17699108
56	0x3e0f39b8	0.13986862
57	0x3d048188	0.032350093
58	0x3ce4d2c3	0.02793253
59	0x3daf7955	0.08568064
60	0xbd1dc7ab	-0.038520496
61	0x3c9a74b7	0.018854482
62	0xbc9de0c1	-0.01927221
63	0xbd0c5eaf	-0.034269985
64	0x3cff96af	0.031199781
65	0x40263e09	2.5975363
66	0xbe593ae3	-0.2121387
67	0x3df85ca7	0.12127047
68	0x3cb06967	0.021534635
69	0x3d1b9e6a	0.037992872
70	0x3e609745	0.21932705
71	0x3c3edc11	0.011649148
72	0xbd91dda1	-0.071223505
73	0xbdc47fec	-0.09594712
74	0xbda09ebc	-0.07842776
75	0xbbcb0418	-0.0061955564
76	0x3fed8d62	1.8558772
77	0x4002d50a	2.0442529
78	0xbe695f44	-0.22790247
79	0x3dd3c0d6	0.10339515
80	0x3d3d1daf	0.046170887
81	0x3c943d21	0.018095555
82	0x3ddc9009	0.1076966
83	0xbc6f838b	-0.014618765
84	0xbdc92b5e	-0.09822725
85	0xbda0128a	-0.07816036
86	0xbd6e52c4	-0.0581844
87	0xbc206d7b	-0.009791727
88	0x4001acdc	2.0261755
89	0x3fe84bd9	1.8148147
90	0x4017d7f7	2.3725564
91	0x3e480d20	0.19536257
92	0x3c95fcca	0.018309016
93	0xbe959b57	-0.29220077
94	0x3ed9c76a	0.42534953
95	0xbe25777e	-0.16158864
96	0xbe08b84f	-0.13351558
97	0x3e4bdfd6	0.19909605
98	0x3e4fc939	0.20291604
99	0xbe0a5f6e	-0.13512966
100	0xbd61e58a	-0.055150546
101	0x3d021bad	0.031764675
102	0x3c87e455	0.01658837
103	0xbda62601	-0.081127174
104	0x3fcb0bdf	1.5862998
105	0xbd660163	-0.056153666
106	0xbc1d7d46	-0.009612387
107	0x3d1d72f2	0.0384397
108	0xbfabb54d	-1.3414704
109	0x3f132282	0.5747453
110	0x3aa479cb	0.0012548504
111	0xbf9ae0e3	-1.209988
112	0xbf6d86f4	-0.9278405
113	0xbd02b4fa	-0.031910874
114	0x3c4bc526	0.012437141
115	0x3e991a52	0.29902893
116	0x3ea203bc	0.31643474
117	0x3eb57fb2	0.35448986
118	0xbf05569a	-0.5208527
119	0x3e1847a5	0.1487108
120	0xbcef849d	-0.02923804
121	0x3cc73cc1	0.024320962
122	0xbefb3e1d	-0.49070826
123	0x3e275d06	0.1634408
124	0x3cb6107e	0.022224661
125	0x3ca1c3d6	0.019746702
126	0x3d69a5fc	0.05704306
127	0x3d24f90b	0.04027657
128	0xbf2b9d6d	-0.6703709
129	0xbeb804cc	-0.3594116
130	0x3d1b8552	0.03796894
131	0x3ceedf43	0.029159194
132	0x3c6168ae	0.013757868
133	0x3fc53f49	1.5409938
134	0xbe239eb8	-0.15978515
135	0x40446890	3.068882
136	0xbeae9408	-0.34097314
137	0x3fbef3c9	1.4918147
138	0xbe3d6170	-0.184942
139	0x3f22b7ec	0.6356189
140	0x3c860e96	0.016364377
141	0xbf97af09	-1.1850291
142	0x3e8b74b9	0.2723749
143	0x3e91d67d	0.28483954
144	0xbf742156	-0.95363367
145	0xbd02b35f	-0.031909343
146	0x3ed41151	0.4141946
147	0x3eeb76a5	0.45988956
148	0x3e7c8652	0.24660614
149	0x3d6502e5	0.055910964
150	0xbdb3a760	-0.087721586
151	0x3d4778da	0.048699237
152	0x3fbee0a7	1.4912308
153	0x3f450acf	0.7696962
154	0xbf8009a4	-1.0002942
155	0x3e9e5d17	0.30930397
156	0xbe8c1e77	-0.27366993
157	0x3d945bd3	0.072440766
158	0x3f7b3b4e	0.98137367
159	0xbd6f0b1b	-0.0583602
160	0xbcc2c61e	-0.02377611
161	0x3fb705a7	1.42986
162	0x3f9d72c7	1.2300652
163	0xbe0b8cc1	-0.13627912
164	0xbe17add5	-0.14812405
165	0xbe033a85	-0.12815292
166	0xbec3a98e	-0.38215297
167	0x3b17c6e3	0.0023159317
168	0xbf76ffe1	-0.9648419
169	0xbfba29ed	-1.4544045
170	0x3ffc4239	1.970771
171	0x3cead21c	0.028664641
172	0x3dde4746	0.10853438
173	0x3e148956	0.14505515
174	0xbc01f574	-0.007932056
175	0x3f3a388f	0.7274255
176	0x3cc8b2b2	0.024499271
177	0xbf0598a8	-0.5218606
178	0xbefc32c5	-0.49257484
179	0x3d16bc00	0.036800385
180	0x3d048e08	0.032362014
181	0xbdb3d6da	-0.08781214
182	0xbd6bf382	-0.057605274
183	0xbdb9a40a	-0.09064491
184	0xbe86e61e	-0.2634744
185	0x3f0cc9f5	0.5499566
186	0x3d74f467	0.059803393
187	0x3cc54a2d	0.024083221
188	0x3bfc4656	0.0076988144
189	0x3f90ef50	1.1323032
190	0x3eb3a235	0.35084692
191	0xbf30cde6	-0.69064176
192	0x3eadbe04	0.33934033
193	0xbeafe28c	-0.3435253
194	0x3e11cdaf	0.14238618
195	0x3f3ed6a9	0.74546295
196	0xbd805ea2	-0.0626805
197	0xbe09cf85	-0.13458069
198	0x3f9a65eb	1.2062353
199	0x3f9aa3a1	1.2081186
200	0xbdc8b80c	-0.09800729
201	0xbd8b8adc	-0.06813595
202	0xbd7b6756	-0.061377846
203	0xbf06e771	-0.526969
204	0x3d19c5c6	0.037542127
205	0xbf337216	-0.70095956
206	0xbf4dbc0a	-0.8036505
207	0x40067bd7	2.1013086
208	0x3ccec01c	0.02523809
209	0x3ec357c3	0.38152894
210	0x3ef6434f	0.48098227
211	0xbf4fec87	-0.8122029
212	0x3e8e8da8	0.2784245
213	0xbed600d7	-0.41797516
214	0x3d3dbec8	0.04632452
215	0x3f4a72ee	0.7908162
216	0xbe01c597	-0.12673031
217	0xbe3bbd60	-0.1833396
218	0x3f80454c	1.0021148
219	0x3f87d427	1.0611619
220	0x3b2cdeec	0.002637799
221	0x3baef5e5	0.0053393715
222	0x3b8206f8	0.003968116
223	0xbf1ae9e9	-0.6051317
224	0x3d6a0308	0.057131797
225	0xbf5003a0	-0.8125553
226	0xbf95de42	-1.1708453
227	0x4007e328	2.1232395
228	0x3c464e76	0.0121036675
229	0x3f885560	1.0651054
230	0x3f89667a	1.0734398
231	0xbe096421	-0.13417102
232	0x3fcbb2ba	1.5913918
233	0xbcfc426f	-0.030793397
234	0x3eda3611	0.42619374
235	0x3bc49707	0.005999449
236	0xbf104088	-0.56348467
237	0x3df6e801	0.1205597
238	0x3ec61116	0.3868491
239	0xbe6346b0	-0.22194934
240	0xbe41e031	-0.18933178
241	0x3ea9c8c9	0.33161
242	0x3e790815	0.2431949
243	0x3e5cb940	0.21555042
244	0xbdc1fce8	-0.09472066
245	0x3c9a371c	0.018825106
246	0xbdf59ce6	-0.119928166
247	0x3f251daa	0.6449839
248	0xbeed9b85	-0.46407714
249	0x3eb2cb22	0.34920603
250	0xbf033714	-0.5125592
251	0xbf1c2cca	-0.6100584
252	0x3fd16af9	1.636077
253	0x3e373a02	0.17893222
254	0xbc33a6fc	-0.010965105
255	0xbe9d6398	-0.30740047

conv1.lin.weight f4 [16, 5]
0	0xbe7ec33a	-0.2487916
1	0x3edef535	0.43546453
2	0xbeb53c23	-0.35397443
3	0xbec93bd8	-0.3930347
4	0x3e1c1a30	0.15244365
5	0xbf69f3a9	-0.9138742
6	0xbe3b6afa	-0.18302527
7	0x3f00b69f	0.5027866
8	0x3e82a798	0.2551849
9	0xbf776c3e	-0.9664954
10	0xbe249a83	-0.16074567
11	0x3ece4142	0.40284163
12	0xbdef0baf	-0.1167215
13	0xbeaba6b6	-0.33525628
14	0xbd4560b0	-0.04818791
15	0xbf2213ff	-0.6331176
16	0xbfbfc730	-1.4982662
17	0xbe6e0d1d	-0.2324719
18	0x4036aa2b	2.8541362
19	0x401685b7	2.3519113
20	0xbecf66e1	-0.40508178
21	0xbe710d03	-0.2354012
22	0x3e204fcc	0.1565544
23	0xbe936b84	-0.28792965
24	0xbceaf41d	-0.028680855
25	0x3e4410e9	0.19147076
26	0x4000bee0	2.01165
27	0xbf3b03b5	-0.7305253
28	0x3d4859de	0.04891383
29	0x3f255111	0.6457682
30	0x3ccf7e14	0.025328673
31	0xc01e4156	-2.4727378
32	0x3f9d4aa1	1.22884
33	0x3e0fe87e	0.14053532
34	0xbed54c28	-0.41659665
35	0xbead3927	-0.33832666
36	0xbee5a330	-0.44851065
37	0x3e279a96	0.16367564
38	0xbea650df	-0.32483575
39	0x3e6f041c	0.23341411
40	0xbf5f18c9	-0.87147194
41	0x3f771d91	0.9652949
42	0x3f25ac1e	0.64715755
43	0x3eacb07c	0.33728397
44	0xbf597489	-0.84943444
45	0xbea6432f	-0.32473132
46	0x3ea8fc14	0.3300482
47	0xbe8e1af3	-0.27754936
48	0xbd84ddd3	-0.06487622
49	0x3c614aec	0.013750773
50	0xbd8ca2b3	-0.0686697
51	0x3eaa7767	0.33294222
52	0x3e64cf89	0.22344793
53	0x3eb8d66b	0.36101088
54	0xbe82bae9	-0.25533226
55	0x3f670070	0.9023504
56	0xc0016b64	-2.0221796
57	0x3f3a5657	0.72787994
58	0x3cd7f4bb	0.026361814
59	0x3f273577	0.65315956
60	0x3d8c3861	0.06846691
61	0xbe242026	-0.16027889
62	0xbd8b9cba	-0.068170026
63	0xbe59fb81	-0.21287347
64	0xbd89e772	-0.06733598
65	0x3f687886	0.90808904
66	0xc00416fc	-2.0639029
67	0x3f42e286	0.761269
68	0x3d535772	0.051597066
69	0x3f272e91	0.6530543
70	0xbf806fb4	-1.0034089
71	0x3eb9210b	0.36158022
72	0x3e921c2d	0.2853712
73	0x3e92ab65	0.2864639
74	0xbf6bbe40	-0.92087173
75	0xbe6a7c64	-0.22899014
76	0x3dd348b1	0.10316599
77	0xbdc8059a	-0.097666934
78	0x3e0b1e6d	0.13585825
79	0x3dc7884e	0.09742795

conv1.lin.bias f4 [16]
0	0xbe99d307	-0.30043814
1	0xbca1cba9	-0.019750433
2	0xbef0b2b1	-0.4701133
3	0x3d134372	0.035952993
4	0xbe9dbe15	-0.30809084
5	0xbd7793c2	-0.060443647
6	0x3c821472	0.01587889
7	0xbe2aef35	-0.16692813
8	0xbe19e63b	-0.15029232
9	0xbe357310	-0.17719674
10	0xbeeb0f05	-0.45909896
11	0x3d2785f4	0.040899232
12	0xbee506c5	-0.44731727
13	0x3d25aa24	0.040445462
14	0xbcc8b5ab	-0.024500689
15	0xbd929b3d	-0.071585156

fc.weight f4 [4, 16]
0	0xbdd330f2	-0.1031207
1	0xbece1136	-0.40247506
2	0x3e7bbf3b	0.24584667
3	0x404158ad	3.0210373
4	0xbded0ea8	-0.11575061
5	0xbf85ac8d	-1.0443283
6	0xbf0af2c4	-0.5427668
7	0x3e3822a3	0.17981963
8	0xbe14ff09	-0.14550413
9	0x3e8e2478	0.27762198
10	0x3e5756f6	0.21029267
11	0x3e075461	0.13215782
12	0x3e8e4c8f	0.27792785
13	0x3e06bb37	0.13157354
14	0xbec9c530	-0.39408255
15	0xbe2de5af	-0.16982149
16	0xbca6fcb2	-0.020384166
17	0x3eaafcd2	0.33396012
18	0x3e02fbf8	0.12791431
19	0xbf5b8e29	-0.85763794
20	0xbe49bbd0	-0.19700551
21	0x3eae572d	0.34050885
22	0x3ed4e11a	0.4157799
23	0xbc88373f	-0.016627906
24	0x3f89cc5a	1.0765488
25	0xbd0b8691	-0.03406388
26	0xbd636f4e	-0.05552607
27	0xc0401c90	-3.0017433
28	0x3e3c42a0	0.1838479
29	0xc036bf5b	-2.8554294
30	0x3f1cd265	0.61258537
31	0x3c9b95ec	0.018992387
32	0xbe29fb50	-0.16599774
33	0xbea99638	-0.3312242
34	0xbc9d72fa	-0.019219864
35	0xc048d8db	-3.1382358
36	0x3e3b1e24	0.18273216
37	0x3fa43590	1.2828846
38	0xbea8825b	-0.32911953
39	0x3d093f5a	0.033507682
40	0xbe6695d5	-0.22518094
41	0xbe410b7f	-0.18852042
42	0xbdded1f4	-0.10879889
43	0x3f05922f	0.52176183
44	0xbe2cda86	-0.16880235
45	0x3f0a6bab	0.5407054
46	0xbee2c855	-0.44293466
47	0x3e0da676	0.13833031
48	0xbc3e6183	-0.011619928
49	0x3ca60324	0.02026517
50	0x3e3fb29a	0.18720475
51	0x3e9c976b	0.30584273
52	0xbc55c1d0	-0.013046697
53	0xbf2678c1	-0.65028006
54	0xbdbcf76b	-0.09226879
55	0x3e826405	0.25466934
56	0xc05c5713	-3.4428146
57	0x3dd4bbdd	0.103873946
58	0xbdb9fc70	-0.09081352
59	0x3fc36a2d	1.5266777
60	0x3e81b1e1	0.25331023
61	0x3fcb6a15	1.5891749
62	0x3db70e62	0.0893829
63	0xbd342383	-0.04397918

fc.bias f4 [4]
0	0x3efc9a43	0.49336442
1	0xbf1aa0db	-0.60401696
2	0x3eb4c0be	0.353033
3	0xbf236cde	-0.63837993
